node {
  name: "global_step/Initializer/zeros"
  op: "Const"
  attr {
    key: "_class"
    value {
      list {
        s: "loc:@global_step"
      }
    }
  }
  attr {
    key: "_output_shapes"
    value {
      list {
        shape {
        }
      }
    }
  }
  attr {
    key: "dtype"
    value {
      type: DT_INT64
    }
  }
  attr {
    key: "value"
    value {
      tensor {
        dtype: DT_INT64
        tensor_shape {
        }
        int64_val: 0
      }
    }
  }
}
node {
  name: "global_step"
  op: "VariableV2"
  device: "/device:CPU:0"
  attr {
    key: "_class"
    value {
      list {
        s: "loc:@global_step"
      }
    }
  }
  attr {
    key: "_output_shapes"
    value {
      list {
        shape {
        }
      }
    }
  }
  attr {
    key: "container"
    value {
      s: ""
    }
  }
  attr {
    key: "dtype"
    value {
      type: DT_INT64
    }
  }
  attr {
    key: "shape"
    value {
      shape {
      }
    }
  }
  attr {
    key: "shared_name"
    value {
      s: ""
    }
  }
}
node {
  name: "global_step/Assign"
  op: "Assign"
  input: "global_step"
  input: "global_step/Initializer/zeros"
  device: "/device:CPU:0"
  attr {
    key: "T"
    value {
      type: DT_INT64
    }
  }
  attr {
    key: "_class"
    value {
      list {
        s: "loc:@global_step"
      }
    }
  }
  attr {
    key: "_output_shapes"
    value {
      list {
        shape {
        }
      }
    }
  }
  attr {
    key: "use_locking"
    value {
      b: true
    }
  }
  attr {
    key: "validate_shape"
    value {
      b: true
    }
  }
}
node {
  name: "global_step/read"
  op: "Identity"
  input: "global_step"
  device: "/device:CPU:0"
  attr {
    key: "T"
    value {
      type: DT_INT64
    }
  }
  attr {
    key: "_class"
    value {
      list {
        s: "loc:@global_step"
      }
    }
  }
  attr {
    key: "_output_shapes"
    value {
      list {
        shape {
        }
      }
    }
  }
}
node {
  name: "zeros"
  op: "Const"
  attr {
    key: "_output_shapes"
    value {
      list {
        shape {
        }
      }
    }
  }
  attr {
    key: "dtype"
    value {
      type: DT_INT64
    }
  }
  attr {
    key: "value"
    value {
      tensor {
        dtype: DT_INT64
        tensor_shape {
        }
        int64_val: 0
      }
    }
  }
}
node {
  name: "parallel_read/filenames/Const"
  op: "Const"
  device: "/device:CPU:0"
  attr {
    key: "_output_shapes"
    value {
      list {
        shape {
          dim {
            size: 40
          }
        }
      }
    }
  }
  attr {
    key: "dtype"
    value {
      type: DT_STRING
    }
  }
  attr {
    key: "value"
    value {
      tensor {
        dtype: DT_STRING
        tensor_shape {
          dim {
            size: 40
          }
        }
        string_val: "data/train-dataset.record-00022-of-00040"
        string_val: "data/train-dataset.record-00001-of-00040"
        string_val: "data/train-dataset.record-00011-of-00040"
        string_val: "data/train-dataset.record-00021-of-00040"
        string_val: "data/train-dataset.record-00016-of-00040"
        string_val: "data/train-dataset.record-00009-of-00040"
        string_val: "data/train-dataset.record-00023-of-00040"
        string_val: "data/train-dataset.record-00015-of-00040"
        string_val: "data/train-dataset.record-00037-of-00040"
        string_val: "data/train-dataset.record-00013-of-00040"
        string_val: "data/train-dataset.record-00018-of-00040"
        string_val: "data/train-dataset.record-00010-of-00040"
        string_val: "data/train-dataset.record-00030-of-00040"
        string_val: "data/train-dataset.record-00012-of-00040"
        string_val: "data/train-dataset.record-00005-of-00040"
        string_val: "data/train-dataset.record-00000-of-00040"
        string_val: "data/train-dataset.record-00006-of-00040"
        string_val: "data/train-dataset.record-00031-of-00040"
        string_val: "data/train-dataset.record-00027-of-00040"
        string_val: "data/train-dataset.record-00002-of-00040"
        string_val: "data/train-dataset.record-00024-of-00040"
        string_val: "data/train-dataset.record-00014-of-00040"
        string_val: "data/train-dataset.record-00035-of-00040"
        string_val: "data/train-dataset.record-00028-of-00040"
        string_val: "data/train-dataset.record-00020-of-00040"
        string_val: "data/train-dataset.record-00007-of-00040"
        string_val: "data/train-dataset.record-00032-of-00040"
        string_val: "data/train-dataset.record-00003-of-00040"
        string_val: "data/train-dataset.record-00026-of-00040"
        string_val: "data/train-dataset.record-00025-of-00040"
        string_val: "data/train-dataset.record-00008-of-00040"
        string_val: "data/train-dataset.record-00019-of-00040"
        string_val: "data/train-dataset.record-00036-of-00040"
        string_val: "data/train-dataset.record-00034-of-00040"
        string_val: "data/train-dataset.record-00017-of-00040"
        string_val: "data/train-dataset.record-00004-of-00040"
        string_val: "data/train-dataset.record-00029-of-00040"
        string_val: "data/train-dataset.record-00039-of-00040"
        string_val: "data/train-dataset.record-00038-of-00040"
        string_val: "data/train-dataset.record-00033-of-00040"
      }
    }
  }
}
node {
  name: "parallel_read/filenames/Size"
  op: "Const"
  device: "/device:CPU:0"
  attr {
    key: "_output_shapes"
    value {
      list {
        shape {
        }
      }
    }
  }
  attr {
    key: "dtype"
    value {
      type: DT_INT32
    }
  }
  attr {
    key: "value"
    value {
      tensor {
        dtype: DT_INT32
        tensor_shape {
        }
        int_val: 40
      }
    }
  }
}
node {
  name: "parallel_read/filenames/Greater/y"
  op: "Const"
  device: "/device:CPU:0"
  attr {
    key: "_output_shapes"
    value {
      list {
        shape {
        }
      }
    }
  }
  attr {
    key: "dtype"
    value {
      type: DT_INT32
    }
  }
  attr {
    key: "value"
    value {
      tensor {
        dtype: DT_INT32
        tensor_shape {
        }
        int_val: 0
      }
    }
  }
}
node {
  name: "parallel_read/filenames/Greater"
  op: "Greater"
  input: "parallel_read/filenames/Size"
  input: "parallel_read/filenames/Greater/y"
  device: "/device:CPU:0"
  attr {
    key: "T"
    value {
      type: DT_INT32
    }
  }
  attr {
    key: "_output_shapes"
    value {
      list {
        shape {
        }
      }
    }
  }
}
node {
  name: "parallel_read/filenames/Assert/Const"
  op: "Const"
  device: "/device:CPU:0"
  attr {
    key: "_output_shapes"
    value {
      list {
        shape {
        }
      }
    }
  }
  attr {
    key: "dtype"
    value {
      type: DT_STRING
    }
  }
  attr {
    key: "value"
    value {
      tensor {
        dtype: DT_STRING
        tensor_shape {
        }
        string_val: "string_input_producer requires a non-null input tensor"
      }
    }
  }
}
node {
  name: "parallel_read/filenames/Assert/Assert/data_0"
  op: "Const"
  device: "/device:CPU:0"
  attr {
    key: "_output_shapes"
    value {
      list {
        shape {
        }
      }
    }
  }
  attr {
    key: "dtype"
    value {
      type: DT_STRING
    }
  }
  attr {
    key: "value"
    value {
      tensor {
        dtype: DT_STRING
        tensor_shape {
        }
        string_val: "string_input_producer requires a non-null input tensor"
      }
    }
  }
}
node {
  name: "parallel_read/filenames/Assert/Assert"
  op: "Assert"
  input: "parallel_read/filenames/Greater"
  input: "parallel_read/filenames/Assert/Assert/data_0"
  device: "/device:CPU:0"
  attr {
    key: "T"
    value {
      list {
        type: DT_STRING
      }
    }
  }
  attr {
    key: "summarize"
    value {
      i: 3
    }
  }
}
node {
  name: "parallel_read/filenames/Identity"
  op: "Identity"
  input: "parallel_read/filenames/Const"
  input: "^parallel_read/filenames/Assert/Assert"
  device: "/device:CPU:0"
  attr {
    key: "T"
    value {
      type: DT_STRING
    }
  }
  attr {
    key: "_output_shapes"
    value {
      list {
        shape {
          dim {
            size: 40
          }
        }
      }
    }
  }
}
node {
  name: "parallel_read/filenames/RandomShuffle"
  op: "RandomShuffle"
  input: "parallel_read/filenames/Identity"
  device: "/device:CPU:0"
  attr {
    key: "T"
    value {
      type: DT_STRING
    }
  }
  attr {
    key: "_output_shapes"
    value {
      list {
        shape {
          dim {
            size: 40
          }
        }
      }
    }
  }
  attr {
    key: "seed"
    value {
      i: 0
    }
  }
  attr {
    key: "seed2"
    value {
      i: 0
    }
  }
}
node {
  name: "parallel_read/filenames"
  op: "FIFOQueueV2"
  device: "/device:CPU:0"
  attr {
    key: "_output_shapes"
    value {
      list {
        shape {
        }
      }
    }
  }
  attr {
    key: "capacity"
    value {
      i: 32
    }
  }
  attr {
    key: "component_types"
    value {
      list {
        type: DT_STRING
      }
    }
  }
  attr {
    key: "container"
    value {
      s: ""
    }
  }
  attr {
    key: "shapes"
    value {
      list {
        shape {
        }
      }
    }
  }
  attr {
    key: "shared_name"
    value {
      s: ""
    }
  }
}
node {
  name: "parallel_read/filenames/filenames_EnqueueMany"
  op: "QueueEnqueueManyV2"
  input: "parallel_read/filenames"
  input: "parallel_read/filenames/RandomShuffle"
  device: "/device:CPU:0"
  attr {
    key: "Tcomponents"
    value {
      list {
        type: DT_STRING
      }
    }
  }
  attr {
    key: "timeout_ms"
    value {
      i: -1
    }
  }
}
node {
  name: "parallel_read/filenames/filenames_Close"
  op: "QueueCloseV2"
  input: "parallel_read/filenames"
  device: "/device:CPU:0"
  attr {
    key: "cancel_pending_enqueues"
    value {
      b: false
    }
  }
}
node {
  name: "parallel_read/filenames/filenames_Close_1"
  op: "QueueCloseV2"
  input: "parallel_read/filenames"
  device: "/device:CPU:0"
  attr {
    key: "cancel_pending_enqueues"
    value {
      b: true
    }
  }
}
node {
  name: "parallel_read/filenames/filenames_Size"
  op: "QueueSizeV2"
  input: "parallel_read/filenames"
  device: "/device:CPU:0"
  attr {
    key: "_output_shapes"
    value {
      list {
        shape {
        }
      }
    }
  }
}
node {
  name: "parallel_read/filenames/ToFloat"
  op: "Cast"
  input: "parallel_read/filenames/filenames_Size"
  device: "/device:CPU:0"
  attr {
    key: "DstT"
    value {
      type: DT_FLOAT
    }
  }
  attr {
    key: "SrcT"
    value {
      type: DT_INT32
    }
  }
  attr {
    key: "Truncate"
    value {
      b: false
    }
  }
  attr {
    key: "_output_shapes"
    value {
      list {
        shape {
        }
      }
    }
  }
}
node {
  name: "parallel_read/filenames/mul/y"
  op: "Const"
  device: "/device:CPU:0"
  attr {
    key: "_output_shapes"
    value {
      list {
        shape {
        }
      }
    }
  }
  attr {
    key: "dtype"
    value {
      type: DT_FLOAT
    }
  }
  attr {
    key: "value"
    value {
      tensor {
        dtype: DT_FLOAT
        tensor_shape {
        }
        float_val: 0.03125
      }
    }
  }
}
node {
  name: "parallel_read/filenames/mul"
  op: "Mul"
  input: "parallel_read/filenames/ToFloat"
  input: "parallel_read/filenames/mul/y"
  device: "/device:CPU:0"
  attr {
    key: "T"
    value {
      type: DT_FLOAT
    }
  }
  attr {
    key: "_output_shapes"
    value {
      list {
        shape {
        }
      }
    }
  }
}
node {
  name: "parallel_read/filenames/fraction_of_32_full/tags"
  op: "Const"
  device: "/device:CPU:0"
  attr {
    key: "_output_shapes"
    value {
      list {
        shape {
        }
      }
    }
  }
  attr {
    key: "dtype"
    value {
      type: DT_STRING
    }
  }
  attr {
    key: "value"
    value {
      tensor {
        dtype: DT_STRING
        tensor_shape {
        }
        string_val: "parallel_read/filenames/fraction_of_32_full"
      }
    }
  }
}
node {
  name: "parallel_read/filenames/fraction_of_32_full"
  op: "ScalarSummary"
  input: "parallel_read/filenames/fraction_of_32_full/tags"
  input: "parallel_read/filenames/mul"
  device: "/device:CPU:0"
  attr {
    key: "T"
    value {
      type: DT_FLOAT
    }
  }
  attr {
    key: "_output_shapes"
    value {
      list {
        shape {
        }
      }
    }
  }
}
node {
  name: "parallel_read/common_queue"
  op: "RandomShuffleQueueV2"
  device: "/device:CPU:0"
  attr {
    key: "_output_shapes"
    value {
      list {
        shape {
        }
      }
    }
  }
  attr {
    key: "capacity"
    value {
      i: 640
    }
  }
  attr {
    key: "component_types"
    value {
      list {
        type: DT_STRING
        type: DT_STRING
      }
    }
  }
  attr {
    key: "container"
    value {
      s: ""
    }
  }
  attr {
    key: "min_after_dequeue"
    value {
      i: 320
    }
  }
  attr {
    key: "seed"
    value {
      i: 0
    }
  }
  attr {
    key: "seed2"
    value {
      i: 0
    }
  }
  attr {
    key: "shapes"
    value {
      list {
      }
    }
  }
  attr {
    key: "shared_name"
    value {
      s: ""
    }
  }
}
node {
  name: "parallel_read/common_queue_Size"
  op: "QueueSizeV2"
  input: "parallel_read/common_queue"
  device: "/device:CPU:0"
  attr {
    key: "_output_shapes"
    value {
      list {
        shape {
        }
      }
    }
  }
}
node {
  name: "parallel_read/ToFloat"
  op: "Cast"
  input: "parallel_read/common_queue_Size"
  device: "/device:CPU:0"
  attr {
    key: "DstT"
    value {
      type: DT_FLOAT
    }
  }
  attr {
    key: "SrcT"
    value {
      type: DT_INT32
    }
  }
  attr {
    key: "Truncate"
    value {
      b: false
    }
  }
  attr {
    key: "_output_shapes"
    value {
      list {
        shape {
        }
      }
    }
  }
}
node {
  name: "parallel_read/mul/y"
  op: "Const"
  device: "/device:CPU:0"
  attr {
    key: "_output_shapes"
    value {
      list {
        shape {
        }
      }
    }
  }
  attr {
    key: "dtype"
    value {
      type: DT_FLOAT
    }
  }
  attr {
    key: "value"
    value {
      tensor {
        dtype: DT_FLOAT
        tensor_shape {
        }
        float_val: 0.00156250002328
      }
    }
  }
}
node {
  name: "parallel_read/mul"
  op: "Mul"
  input: "parallel_read/ToFloat"
  input: "parallel_read/mul/y"
  device: "/device:CPU:0"
  attr {
    key: "T"
    value {
      type: DT_FLOAT
    }
  }
  attr {
    key: "_output_shapes"
    value {
      list {
        shape {
        }
      }
    }
  }
}
node {
  name: "parallel_read/fraction_of_640_full/tags"
  op: "Const"
  device: "/device:CPU:0"
  attr {
    key: "_output_shapes"
    value {
      list {
        shape {
        }
      }
    }
  }
  attr {
    key: "dtype"
    value {
      type: DT_STRING
    }
  }
  attr {
    key: "value"
    value {
      tensor {
        dtype: DT_STRING
        tensor_shape {
        }
        string_val: "parallel_read/fraction_of_640_full"
      }
    }
  }
}
node {
  name: "parallel_read/fraction_of_640_full"
  op: "ScalarSummary"
  input: "parallel_read/fraction_of_640_full/tags"
  input: "parallel_read/mul"
  device: "/device:CPU:0"
  attr {
    key: "T"
    value {
      type: DT_FLOAT
    }
  }
  attr {
    key: "_output_shapes"
    value {
      list {
        shape {
        }
      }
    }
  }
}
node {
  name: "parallel_read/TFRecordReaderV2"
  op: "TFRecordReaderV2"
  device: "/device:CPU:0"
  attr {
    key: "_output_shapes"
    value {
      list {
        shape {
        }
      }
    }
  }
  attr {
    key: "compression_type"
    value {
      s: ""
    }
  }
  attr {
    key: "container"
    value {
      s: ""
    }
  }
  attr {
    key: "shared_name"
    value {
      s: ""
    }
  }
}
node {
  name: "parallel_read/TFRecordReaderV2_1"
  op: "TFRecordReaderV2"
  device: "/device:CPU:0"
  attr {
    key: "_output_shapes"
    value {
      list {
        shape {
        }
      }
    }
  }
  attr {
    key: "compression_type"
    value {
      s: ""
    }
  }
  attr {
    key: "container"
    value {
      s: ""
    }
  }
  attr {
    key: "shared_name"
    value {
      s: ""
    }
  }
}
node {
  name: "parallel_read/TFRecordReaderV2_2"
  op: "TFRecordReaderV2"
  device: "/device:CPU:0"
  attr {
    key: "_output_shapes"
    value {
      list {
        shape {
        }
      }
    }
  }
  attr {
    key: "compression_type"
    value {
      s: ""
    }
  }
  attr {
    key: "container"
    value {
      s: ""
    }
  }
  attr {
    key: "shared_name"
    value {
      s: ""
    }
  }
}
node {
  name: "parallel_read/TFRecordReaderV2_3"
  op: "TFRecordReaderV2"
  device: "/device:CPU:0"
  attr {
    key: "_output_shapes"
    value {
      list {
        shape {
        }
      }
    }
  }
  attr {
    key: "compression_type"
    value {
      s: ""
    }
  }
  attr {
    key: "container"
    value {
      s: ""
    }
  }
  attr {
    key: "shared_name"
    value {
      s: ""
    }
  }
}
node {
  name: "parallel_read/ReaderReadV2"
  op: "ReaderReadV2"
  input: "parallel_read/TFRecordReaderV2"
  input: "parallel_read/filenames"
  device: "/device:CPU:0"
  attr {
    key: "_output_shapes"
    value {
      list {
        shape {
        }
        shape {
        }
      }
    }
  }
}
node {
  name: "parallel_read/common_queue_enqueue"
  op: "QueueEnqueueV2"
  input: "parallel_read/common_queue"
  input: "parallel_read/ReaderReadV2"
  input: "parallel_read/ReaderReadV2:1"
  device: "/device:CPU:0"
  attr {
    key: "Tcomponents"
    value {
      list {
        type: DT_STRING
        type: DT_STRING
      }
    }
  }
  attr {
    key: "timeout_ms"
    value {
      i: -1
    }
  }
}
node {
  name: "parallel_read/ReaderReadV2_1"
  op: "ReaderReadV2"
  input: "parallel_read/TFRecordReaderV2_1"
  input: "parallel_read/filenames"
  device: "/device:CPU:0"
  attr {
    key: "_output_shapes"
    value {
      list {
        shape {
        }
        shape {
        }
      }
    }
  }
}
node {
  name: "parallel_read/common_queue_enqueue_1"
  op: "QueueEnqueueV2"
  input: "parallel_read/common_queue"
  input: "parallel_read/ReaderReadV2_1"
  input: "parallel_read/ReaderReadV2_1:1"
  device: "/device:CPU:0"
  attr {
    key: "Tcomponents"
    value {
      list {
        type: DT_STRING
        type: DT_STRING
      }
    }
  }
  attr {
    key: "timeout_ms"
    value {
      i: -1
    }
  }
}
node {
  name: "parallel_read/ReaderReadV2_2"
  op: "ReaderReadV2"
  input: "parallel_read/TFRecordReaderV2_2"
  input: "parallel_read/filenames"
  device: "/device:CPU:0"
  attr {
    key: "_output_shapes"
    value {
      list {
        shape {
        }
        shape {
        }
      }
    }
  }
}
node {
  name: "parallel_read/common_queue_enqueue_2"
  op: "QueueEnqueueV2"
  input: "parallel_read/common_queue"
  input: "parallel_read/ReaderReadV2_2"
  input: "parallel_read/ReaderReadV2_2:1"
  device: "/device:CPU:0"
  attr {
    key: "Tcomponents"
    value {
      list {
        type: DT_STRING
        type: DT_STRING
      }
    }
  }
  attr {
    key: "timeout_ms"
    value {
      i: -1
    }
  }
}
node {
  name: "parallel_read/ReaderReadV2_3"
  op: "ReaderReadV2"
  input: "parallel_read/TFRecordReaderV2_3"
  input: "parallel_read/filenames"
  device: "/device:CPU:0"
  attr {
    key: "_output_shapes"
    value {
      list {
        shape {
        }
        shape {
        }
      }
    }
  }
}
node {
  name: "parallel_read/common_queue_enqueue_3"
  op: "QueueEnqueueV2"
  input: "parallel_read/common_queue"
  input: "parallel_read/ReaderReadV2_3"
  input: "parallel_read/ReaderReadV2_3:1"
  device: "/device:CPU:0"
  attr {
    key: "Tcomponents"
    value {
      list {
        type: DT_STRING
        type: DT_STRING
      }
    }
  }
  attr {
    key: "timeout_ms"
    value {
      i: -1
    }
  }
}
node {
  name: "parallel_read/common_queue_Close"
  op: "QueueCloseV2"
  input: "parallel_read/common_queue"
  device: "/device:CPU:0"
  attr {
    key: "cancel_pending_enqueues"
    value {
      b: false
    }
  }
}
node {
  name: "parallel_read/common_queue_Close_1"
  op: "QueueCloseV2"
  input: "parallel_read/common_queue"
  device: "/device:CPU:0"
  attr {
    key: "cancel_pending_enqueues"
    value {
      b: true
    }
  }
}
node {
  name: "parallel_read/common_queue_Dequeue"
  op: "QueueDequeueV2"
  input: "parallel_read/common_queue"
  device: "/device:CPU:0"
  attr {
    key: "_output_shapes"
    value {
      list {
        shape {
          unknown_rank: true
        }
        shape {
          unknown_rank: true
        }
      }
    }
  }
  attr {
    key: "component_types"
    value {
      list {
        type: DT_STRING
        type: DT_STRING
      }
    }
  }
  attr {
    key: "timeout_ms"
    value {
      i: -1
    }
  }
}
node {
  name: "ParseSingleExample/key_image/encoded"
  op: "Const"
  device: "/device:CPU:0"
  attr {
    key: "_output_shapes"
    value {
      list {
        shape {
        }
      }
    }
  }
  attr {
    key: "dtype"
    value {
      type: DT_STRING
    }
  }
  attr {
    key: "value"
    value {
      tensor {
        dtype: DT_STRING
        tensor_shape {
        }
        string_val: ""
      }
    }
  }
}
node {
  name: "ParseSingleExample/Reshape/shape"
  op: "Const"
  device: "/device:CPU:0"
  attr {
    key: "_output_shapes"
    value {
      list {
        shape {
          dim {
          }
        }
      }
    }
  }
  attr {
    key: "dtype"
    value {
      type: DT_INT32
    }
  }
  attr {
    key: "value"
    value {
      tensor {
        dtype: DT_INT32
        tensor_shape {
          dim {
          }
        }
      }
    }
  }
}
node {
  name: "ParseSingleExample/Reshape"
  op: "Reshape"
  input: "ParseSingleExample/key_image/encoded"
  input: "ParseSingleExample/Reshape/shape"
  device: "/device:CPU:0"
  attr {
    key: "T"
    value {
      type: DT_STRING
    }
  }
  attr {
    key: "Tshape"
    value {
      type: DT_INT32
    }
  }
  attr {
    key: "_output_shapes"
    value {
      list {
        shape {
        }
      }
    }
  }
}
node {
  name: "ParseSingleExample/key_image/format"
  op: "Const"
  device: "/device:CPU:0"
  attr {
    key: "_output_shapes"
    value {
      list {
        shape {
        }
      }
    }
  }
  attr {
    key: "dtype"
    value {
      type: DT_STRING
    }
  }
  attr {
    key: "value"
    value {
      tensor {
        dtype: DT_STRING
        tensor_shape {
        }
        string_val: "png"
      }
    }
  }
}
node {
  name: "ParseSingleExample/Reshape_1/shape"
  op: "Const"
  device: "/device:CPU:0"
  attr {
    key: "_output_shapes"
    value {
      list {
        shape {
          dim {
          }
        }
      }
    }
  }
  attr {
    key: "dtype"
    value {
      type: DT_INT32
    }
  }
  attr {
    key: "value"
    value {
      tensor {
        dtype: DT_INT32
        tensor_shape {
          dim {
          }
        }
      }
    }
  }
}
node {
  name: "ParseSingleExample/Reshape_1"
  op: "Reshape"
  input: "ParseSingleExample/key_image/format"
  input: "ParseSingleExample/Reshape_1/shape"
  device: "/device:CPU:0"
  attr {
    key: "T"
    value {
      type: DT_STRING
    }
  }
  attr {
    key: "Tshape"
    value {
      type: DT_INT32
    }
  }
  attr {
    key: "_output_shapes"
    value {
      list {
        shape {
        }
      }
    }
  }
}
node {
  name: "ParseSingleExample/ParseSingleExample"
  op: "ParseSingleExample"
  input: "parallel_read/common_queue_Dequeue:1"
  input: "zeros"
  input: "ParseSingleExample/Reshape"
  input: "ParseSingleExample/Reshape_1"
  device: "/device:CPU:0"
  attr {
    key: "Tdense"
    value {
      list {
        type: DT_INT64
        type: DT_STRING
        type: DT_STRING
      }
    }
  }
  attr {
    key: "_output_shapes"
    value {
      list {
        shape {
        }
        shape {
        }
        shape {
        }
      }
    }
  }
  attr {
    key: "dense_keys"
    value {
      list {
        s: "image/class/label"
        s: "image/encoded"
        s: "image/format"
      }
    }
  }
  attr {
    key: "dense_shapes"
    value {
      list {
        shape {
        }
        shape {
        }
        shape {
        }
      }
    }
  }
  attr {
    key: "num_sparse"
    value {
      i: 0
    }
  }
  attr {
    key: "sparse_keys"
    value {
      list {
      }
    }
  }
  attr {
    key: "sparse_types"
    value {
      list {
      }
    }
  }
}
node {
  name: "Reshape/shape"
  op: "Const"
  device: "/device:CPU:0"
  attr {
    key: "_output_shapes"
    value {
      list {
        shape {
          dim {
          }
        }
      }
    }
  }
  attr {
    key: "dtype"
    value {
      type: DT_INT32
    }
  }
  attr {
    key: "value"
    value {
      tensor {
        dtype: DT_INT32
        tensor_shape {
          dim {
          }
        }
      }
    }
  }
}
node {
  name: "Reshape"
  op: "Reshape"
  input: "ParseSingleExample/ParseSingleExample"
  input: "Reshape/shape"
  device: "/device:CPU:0"
  attr {
    key: "T"
    value {
      type: DT_INT64
    }
  }
  attr {
    key: "Tshape"
    value {
      type: DT_INT32
    }
  }
  attr {
    key: "_output_shapes"
    value {
      list {
        shape {
        }
      }
    }
  }
}
node {
  name: "Reshape_1/shape"
  op: "Const"
  device: "/device:CPU:0"
  attr {
    key: "_output_shapes"
    value {
      list {
        shape {
          dim {
          }
        }
      }
    }
  }
  attr {
    key: "dtype"
    value {
      type: DT_INT32
    }
  }
  attr {
    key: "value"
    value {
      tensor {
        dtype: DT_INT32
        tensor_shape {
          dim {
          }
        }
      }
    }
  }
}
node {
  name: "Reshape_1"
  op: "Reshape"
  input: "ParseSingleExample/ParseSingleExample:1"
  input: "Reshape_1/shape"
  device: "/device:CPU:0"
  attr {
    key: "T"
    value {
      type: DT_STRING
    }
  }
  attr {
    key: "Tshape"
    value {
      type: DT_INT32
    }
  }
  attr {
    key: "_output_shapes"
    value {
      list {
        shape {
        }
      }
    }
  }
}
node {
  name: "Reshape_2/shape"
  op: "Const"
  device: "/device:CPU:0"
  attr {
    key: "_output_shapes"
    value {
      list {
        shape {
          dim {
          }
        }
      }
    }
  }
  attr {
    key: "dtype"
    value {
      type: DT_INT32
    }
  }
  attr {
    key: "value"
    value {
      tensor {
        dtype: DT_INT32
        tensor_shape {
          dim {
          }
        }
      }
    }
  }
}
node {
  name: "Reshape_2"
  op: "Reshape"
  input: "ParseSingleExample/ParseSingleExample:2"
  input: "Reshape_2/shape"
  device: "/device:CPU:0"
  attr {
    key: "T"
    value {
      type: DT_STRING
    }
  }
  attr {
    key: "Tshape"
    value {
      type: DT_INT32
    }
  }
  attr {
    key: "_output_shapes"
    value {
      list {
        shape {
        }
      }
    }
  }
}
node {
  name: "Equal/y"
  op: "Const"
  device: "/device:CPU:0"
  attr {
    key: "_output_shapes"
    value {
      list {
        shape {
        }
      }
    }
  }
  attr {
    key: "dtype"
    value {
      type: DT_STRING
    }
  }
  attr {
    key: "value"
    value {
      tensor {
        dtype: DT_STRING
        tensor_shape {
        }
        string_val: "raw"
      }
    }
  }
}
node {
  name: "Equal"
  op: "Equal"
  input: "Reshape_2"
  input: "Equal/y"
  device: "/device:CPU:0"
  attr {
    key: "T"
    value {
      type: DT_STRING
    }
  }
  attr {
    key: "_output_shapes"
    value {
      list {
        shape {
        }
      }
    }
  }
}
node {
  name: "Equal_1/y"
  op: "Const"
  device: "/device:CPU:0"
  attr {
    key: "_output_shapes"
    value {
      list {
        shape {
        }
      }
    }
  }
  attr {
    key: "dtype"
    value {
      type: DT_STRING
    }
  }
  attr {
    key: "value"
    value {
      tensor {
        dtype: DT_STRING
        tensor_shape {
        }
        string_val: "RAW"
      }
    }
  }
}
node {
  name: "Equal_1"
  op: "Equal"
  input: "Reshape_2"
  input: "Equal_1/y"
  device: "/device:CPU:0"
  attr {
    key: "T"
    value {
      type: DT_STRING
    }
  }
  attr {
    key: "_output_shapes"
    value {
      list {
        shape {
        }
      }
    }
  }
}
node {
  name: "LogicalOr"
  op: "LogicalOr"
  input: "Equal"
  input: "Equal_1"
  device: "/device:CPU:0"
  attr {
    key: "_output_shapes"
    value {
      list {
        shape {
        }
      }
    }
  }
}
node {
  name: "case/preds_c"
  op: "Pack"
  input: "LogicalOr"
  device: "/device:CPU:0"
  attr {
    key: "N"
    value {
      i: 1
    }
  }
  attr {
    key: "T"
    value {
      type: DT_BOOL
    }
  }
  attr {
    key: "_output_shapes"
    value {
      list {
        shape {
          dim {
            size: 1
          }
        }
      }
    }
  }
  attr {
    key: "axis"
    value {
      i: 0
    }
  }
}
node {
  name: "case/Cast"
  op: "Cast"
  input: "case/preds_c"
  device: "/device:CPU:0"
  attr {
    key: "DstT"
    value {
      type: DT_INT32
    }
  }
  attr {
    key: "SrcT"
    value {
      type: DT_BOOL
    }
  }
  attr {
    key: "Truncate"
    value {
      b: false
    }
  }
  attr {
    key: "_output_shapes"
    value {
      list {
        shape {
          dim {
            size: 1
          }
        }
      }
    }
  }
}
node {
  name: "case/Const"
  op: "Const"
  device: "/device:CPU:0"
  attr {
    key: "_output_shapes"
    value {
      list {
        shape {
          dim {
            size: 1
          }
        }
      }
    }
  }
  attr {
    key: "dtype"
    value {
      type: DT_INT32
    }
  }
  attr {
    key: "value"
    value {
      tensor {
        dtype: DT_INT32
        tensor_shape {
          dim {
            size: 1
          }
        }
        int_val: 0
      }
    }
  }
}
node {
  name: "case/num_true_conds"
  op: "Sum"
  input: "case/Cast"
  input: "case/Const"
  device: "/device:CPU:0"
  attr {
    key: "T"
    value {
      type: DT_INT32
    }
  }
  attr {
    key: "Tidx"
    value {
      type: DT_INT32
    }
  }
  attr {
    key: "_output_shapes"
    value {
      list {
        shape {
        }
      }
    }
  }
  attr {
    key: "keep_dims"
    value {
      b: false
    }
  }
}
node {
  name: "case/n_true_conds"
  op: "Const"
  device: "/device:CPU:0"
  attr {
    key: "_output_shapes"
    value {
      list {
        shape {
        }
      }
    }
  }
  attr {
    key: "dtype"
    value {
      type: DT_INT32
    }
  }
  attr {
    key: "value"
    value {
      tensor {
        dtype: DT_INT32
        tensor_shape {
        }
        int_val: 1
      }
    }
  }
}
node {
  name: "case/LessEqual"
  op: "LessEqual"
  input: "case/num_true_conds"
  input: "case/n_true_conds"
  device: "/device:CPU:0"
  attr {
    key: "T"
    value {
      type: DT_INT32
    }
  }
  attr {
    key: "_output_shapes"
    value {
      list {
        shape {
        }
      }
    }
  }
}
node {
  name: "case/Assert/Const"
  op: "Const"
  device: "/device:CPU:0"
  attr {
    key: "_output_shapes"
    value {
      list {
        shape {
        }
      }
    }
  }
  attr {
    key: "dtype"
    value {
      type: DT_STRING
    }
  }
  attr {
    key: "value"
    value {
      tensor {
        dtype: DT_STRING
        tensor_shape {
        }
        string_val: "Input error: exclusive=True: more than 1 conditions (LogicalOr:0) evaluated as True:"
      }
    }
  }
}
node {
  name: "case/Assert/AssertGuard/Switch"
  op: "Switch"
  input: "case/LessEqual"
  input: "case/LessEqual"
  device: "/device:CPU:0"
  attr {
    key: "T"
    value {
      type: DT_BOOL
    }
  }
  attr {
    key: "_output_shapes"
    value {
      list {
        shape {
        }
        shape {
        }
      }
    }
  }
}
node {
  name: "case/Assert/AssertGuard/switch_t"
  op: "Identity"
  input: "case/Assert/AssertGuard/Switch:1"
  device: "/device:CPU:0"
  attr {
    key: "T"
    value {
      type: DT_BOOL
    }
  }
  attr {
    key: "_output_shapes"
    value {
      list {
        shape {
        }
      }
    }
  }
}
node {
  name: "case/Assert/AssertGuard/switch_f"
  op: "Identity"
  input: "case/Assert/AssertGuard/Switch"
  device: "/device:CPU:0"
  attr {
    key: "T"
    value {
      type: DT_BOOL
    }
  }
  attr {
    key: "_output_shapes"
    value {
      list {
        shape {
        }
      }
    }
  }
}
node {
  name: "case/Assert/AssertGuard/pred_id"
  op: "Identity"
  input: "case/LessEqual"
  device: "/device:CPU:0"
  attr {
    key: "T"
    value {
      type: DT_BOOL
    }
  }
  attr {
    key: "_output_shapes"
    value {
      list {
        shape {
        }
      }
    }
  }
}
node {
  name: "case/Assert/AssertGuard/NoOp"
  op: "NoOp"
  input: "^case/Assert/AssertGuard/switch_t"
  device: "/device:CPU:0"
}
node {
  name: "case/Assert/AssertGuard/control_dependency"
  op: "Identity"
  input: "case/Assert/AssertGuard/switch_t"
  input: "^case/Assert/AssertGuard/NoOp"
  device: "/device:CPU:0"
  attr {
    key: "T"
    value {
      type: DT_BOOL
    }
  }
  attr {
    key: "_class"
    value {
      list {
        s: "loc:@case/Assert/AssertGuard/switch_t"
      }
    }
  }
  attr {
    key: "_output_shapes"
    value {
      list {
        shape {
        }
      }
    }
  }
}
node {
  name: "case/Assert/AssertGuard/Assert/data_0"
  op: "Const"
  input: "^case/Assert/AssertGuard/switch_f"
  device: "/device:CPU:0"
  attr {
    key: "_output_shapes"
    value {
      list {
        shape {
        }
      }
    }
  }
  attr {
    key: "dtype"
    value {
      type: DT_STRING
    }
  }
  attr {
    key: "value"
    value {
      tensor {
        dtype: DT_STRING
        tensor_shape {
        }
        string_val: "Input error: exclusive=True: more than 1 conditions (LogicalOr:0) evaluated as True:"
      }
    }
  }
}
node {
  name: "case/Assert/AssertGuard/Assert"
  op: "Assert"
  input: "case/Assert/AssertGuard/Assert/Switch"
  input: "case/Assert/AssertGuard/Assert/data_0"
  input: "case/Assert/AssertGuard/Assert/Switch_1"
  device: "/device:CPU:0"
  attr {
    key: "T"
    value {
      list {
        type: DT_STRING
        type: DT_BOOL
      }
    }
  }
  attr {
    key: "summarize"
    value {
      i: 1
    }
  }
}
node {
  name: "case/Assert/AssertGuard/Assert/Switch"
  op: "Switch"
  input: "case/LessEqual"
  input: "case/Assert/AssertGuard/pred_id"
  device: "/device:CPU:0"
  attr {
    key: "T"
    value {
      type: DT_BOOL
    }
  }
  attr {
    key: "_class"
    value {
      list {
        s: "loc:@case/LessEqual"
      }
    }
  }
  attr {
    key: "_output_shapes"
    value {
      list {
        shape {
        }
        shape {
        }
      }
    }
  }
}
node {
  name: "case/Assert/AssertGuard/Assert/Switch_1"
  op: "Switch"
  input: "case/preds_c"
  input: "case/Assert/AssertGuard/pred_id"
  device: "/device:CPU:0"
  attr {
    key: "T"
    value {
      type: DT_BOOL
    }
  }
  attr {
    key: "_class"
    value {
      list {
        s: "loc:@case/preds_c"
      }
    }
  }
  attr {
    key: "_output_shapes"
    value {
      list {
        shape {
          dim {
            size: 1
          }
        }
        shape {
          dim {
            size: 1
          }
        }
      }
    }
  }
}
node {
  name: "case/Assert/AssertGuard/control_dependency_1"
  op: "Identity"
  input: "case/Assert/AssertGuard/switch_f"
  input: "^case/Assert/AssertGuard/Assert"
  device: "/device:CPU:0"
  attr {
    key: "T"
    value {
      type: DT_BOOL
    }
  }
  attr {
    key: "_class"
    value {
      list {
        s: "loc:@case/Assert/AssertGuard/switch_f"
      }
    }
  }
  attr {
    key: "_output_shapes"
    value {
      list {
        shape {
        }
      }
    }
  }
}
node {
  name: "case/Assert/AssertGuard/Merge"
  op: "Merge"
  input: "case/Assert/AssertGuard/control_dependency_1"
  input: "case/Assert/AssertGuard/control_dependency"
  device: "/device:CPU:0"
  attr {
    key: "N"
    value {
      i: 2
    }
  }
  attr {
    key: "T"
    value {
      type: DT_BOOL
    }
  }
  attr {
    key: "_output_shapes"
    value {
      list {
        shape {
        }
        shape {
        }
      }
    }
  }
}
node {
  name: "case/cond/Switch"
  op: "Switch"
  input: "LogicalOr"
  input: "LogicalOr"
  input: "^case/Assert/AssertGuard/Merge"
  device: "/device:CPU:0"
  attr {
    key: "T"
    value {
      type: DT_BOOL
    }
  }
  attr {
    key: "_output_shapes"
    value {
      list {
        shape {
        }
        shape {
        }
      }
    }
  }
}
node {
  name: "case/cond/switch_t"
  op: "Identity"
  input: "case/cond/Switch:1"
  device: "/device:CPU:0"
  attr {
    key: "T"
    value {
      type: DT_BOOL
    }
  }
  attr {
    key: "_output_shapes"
    value {
      list {
        shape {
        }
      }
    }
  }
}
node {
  name: "case/cond/switch_f"
  op: "Identity"
  input: "case/cond/Switch"
  device: "/device:CPU:0"
  attr {
    key: "T"
    value {
      type: DT_BOOL
    }
  }
  attr {
    key: "_output_shapes"
    value {
      list {
        shape {
        }
      }
    }
  }
}
node {
  name: "case/cond/pred_id"
  op: "Identity"
  input: "LogicalOr"
  input: "^case/Assert/AssertGuard/Merge"
  device: "/device:CPU:0"
  attr {
    key: "T"
    value {
      type: DT_BOOL
    }
  }
  attr {
    key: "_output_shapes"
    value {
      list {
        shape {
        }
      }
    }
  }
}
node {
  name: "case/cond/DecodeRaw"
  op: "DecodeRaw"
  input: "case/cond/DecodeRaw/Switch:1"
  input: "^case/Assert/AssertGuard/Merge"
  device: "/device:CPU:0"
  attr {
    key: "_output_shapes"
    value {
      list {
        shape {
          dim {
            size: -1
          }
        }
      }
    }
  }
  attr {
    key: "little_endian"
    value {
      b: true
    }
  }
  attr {
    key: "out_type"
    value {
      type: DT_UINT8
    }
  }
}
node {
  name: "case/cond/DecodeRaw/Switch"
  op: "Switch"
  input: "Reshape_1"
  input: "case/cond/pred_id"
  device: "/device:CPU:0"
  attr {
    key: "T"
    value {
      type: DT_STRING
    }
  }
  attr {
    key: "_class"
    value {
      list {
        s: "loc:@Reshape_1"
      }
    }
  }
  attr {
    key: "_output_shapes"
    value {
      list {
        shape {
        }
        shape {
        }
      }
    }
  }
}
node {
  name: "case/cond/is_jpeg/Substr/pos"
  op: "Const"
  input: "^case/Assert/AssertGuard/Merge"
  input: "^case/cond/switch_f"
  device: "/device:CPU:0"
  attr {
    key: "_output_shapes"
    value {
      list {
        shape {
        }
      }
    }
  }
  attr {
    key: "dtype"
    value {
      type: DT_INT32
    }
  }
  attr {
    key: "value"
    value {
      tensor {
        dtype: DT_INT32
        tensor_shape {
        }
        int_val: 0
      }
    }
  }
}
node {
  name: "case/cond/is_jpeg/Substr/len"
  op: "Const"
  input: "^case/Assert/AssertGuard/Merge"
  input: "^case/cond/switch_f"
  device: "/device:CPU:0"
  attr {
    key: "_output_shapes"
    value {
      list {
        shape {
        }
      }
    }
  }
  attr {
    key: "dtype"
    value {
      type: DT_INT32
    }
  }
  attr {
    key: "value"
    value {
      tensor {
        dtype: DT_INT32
        tensor_shape {
        }
        int_val: 3
      }
    }
  }
}
node {
  name: "case/cond/is_jpeg/Substr"
  op: "Substr"
  input: "case/cond/is_jpeg/Substr/Switch"
  input: "case/cond/is_jpeg/Substr/pos"
  input: "case/cond/is_jpeg/Substr/len"
  device: "/device:CPU:0"
  attr {
    key: "T"
    value {
      type: DT_INT32
    }
  }
  attr {
    key: "_output_shapes"
    value {
      list {
        shape {
        }
      }
    }
  }
}
node {
  name: "case/cond/is_jpeg/Substr/Switch"
  op: "Switch"
  input: "Reshape_1"
  input: "case/cond/pred_id"
  device: "/device:CPU:0"
  attr {
    key: "T"
    value {
      type: DT_STRING
    }
  }
  attr {
    key: "_class"
    value {
      list {
        s: "loc:@Reshape_1"
      }
    }
  }
  attr {
    key: "_output_shapes"
    value {
      list {
        shape {
        }
        shape {
        }
      }
    }
  }
}
node {
  name: "case/cond/is_jpeg/Equal/y"
  op: "Const"
  input: "^case/Assert/AssertGuard/Merge"
  input: "^case/cond/switch_f"
  device: "/device:CPU:0"
  attr {
    key: "_output_shapes"
    value {
      list {
        shape {
        }
      }
    }
  }
  attr {
    key: "dtype"
    value {
      type: DT_STRING
    }
  }
  attr {
    key: "value"
    value {
      tensor {
        dtype: DT_STRING
        tensor_shape {
        }
        string_val: "\377\330\377"
      }
    }
  }
}
node {
  name: "case/cond/is_jpeg/Equal"
  op: "Equal"
  input: "case/cond/is_jpeg/Substr"
  input: "case/cond/is_jpeg/Equal/y"
  device: "/device:CPU:0"
  attr {
    key: "T"
    value {
      type: DT_STRING
    }
  }
  attr {
    key: "_output_shapes"
    value {
      list {
        shape {
        }
      }
    }
  }
}
node {
  name: "case/cond/cond_jpeg/Switch"
  op: "Switch"
  input: "case/cond/is_jpeg/Equal"
  input: "case/cond/is_jpeg/Equal"
  device: "/device:CPU:0"
  attr {
    key: "T"
    value {
      type: DT_BOOL
    }
  }
  attr {
    key: "_output_shapes"
    value {
      list {
        shape {
        }
        shape {
        }
      }
    }
  }
}
node {
  name: "case/cond/cond_jpeg/switch_t"
  op: "Identity"
  input: "case/cond/cond_jpeg/Switch:1"
  device: "/device:CPU:0"
  attr {
    key: "T"
    value {
      type: DT_BOOL
    }
  }
  attr {
    key: "_output_shapes"
    value {
      list {
        shape {
        }
      }
    }
  }
}
node {
  name: "case/cond/cond_jpeg/switch_f"
  op: "Identity"
  input: "case/cond/cond_jpeg/Switch"
  device: "/device:CPU:0"
  attr {
    key: "T"
    value {
      type: DT_BOOL
    }
  }
  attr {
    key: "_output_shapes"
    value {
      list {
        shape {
        }
      }
    }
  }
}
node {
  name: "case/cond/cond_jpeg/pred_id"
  op: "Identity"
  input: "case/cond/is_jpeg/Equal"
  device: "/device:CPU:0"
  attr {
    key: "T"
    value {
      type: DT_BOOL
    }
  }
  attr {
    key: "_output_shapes"
    value {
      list {
        shape {
        }
      }
    }
  }
}
node {
  name: "case/cond/cond_jpeg/DecodeJpeg"
  op: "DecodeJpeg"
  input: "case/cond/cond_jpeg/DecodeJpeg/Switch:1"
  input: "^case/Assert/AssertGuard/Merge"
  device: "/device:CPU:0"
  attr {
    key: "_output_shapes"
    value {
      list {
        shape {
          dim {
            size: -1
          }
          dim {
            size: -1
          }
          dim {
            size: 3
          }
        }
      }
    }
  }
  attr {
    key: "acceptable_fraction"
    value {
      f: 1.0
    }
  }
  attr {
    key: "channels"
    value {
      i: 3
    }
  }
  attr {
    key: "dct_method"
    value {
      s: ""
    }
  }
  attr {
    key: "fancy_upscaling"
    value {
      b: true
    }
  }
  attr {
    key: "ratio"
    value {
      i: 1
    }
  }
  attr {
    key: "try_recover_truncated"
    value {
      b: false
    }
  }
}
node {
  name: "case/cond/cond_jpeg/DecodeJpeg/Switch"
  op: "Switch"
  input: "case/cond/is_jpeg/Substr/Switch"
  input: "case/cond/cond_jpeg/pred_id"
  device: "/device:CPU:0"
  attr {
    key: "T"
    value {
      type: DT_STRING
    }
  }
  attr {
    key: "_class"
    value {
      list {
        s: "loc:@Reshape_1"
      }
    }
  }
  attr {
    key: "_output_shapes"
    value {
      list {
        shape {
        }
        shape {
        }
      }
    }
  }
}
node {
  name: "case/cond/cond_jpeg/decode_image/Substr/pos"
  op: "Const"
  input: "^case/Assert/AssertGuard/Merge"
  input: "^case/cond/cond_jpeg/switch_f"
  device: "/device:CPU:0"
  attr {
    key: "_output_shapes"
    value {
      list {
        shape {
        }
      }
    }
  }
  attr {
    key: "dtype"
    value {
      type: DT_INT32
    }
  }
  attr {
    key: "value"
    value {
      tensor {
        dtype: DT_INT32
        tensor_shape {
        }
        int_val: 0
      }
    }
  }
}
node {
  name: "case/cond/cond_jpeg/decode_image/Substr/len"
  op: "Const"
  input: "^case/Assert/AssertGuard/Merge"
  input: "^case/cond/cond_jpeg/switch_f"
  device: "/device:CPU:0"
  attr {
    key: "_output_shapes"
    value {
      list {
        shape {
        }
      }
    }
  }
  attr {
    key: "dtype"
    value {
      type: DT_INT32
    }
  }
  attr {
    key: "value"
    value {
      tensor {
        dtype: DT_INT32
        tensor_shape {
        }
        int_val: 3
      }
    }
  }
}
node {
  name: "case/cond/cond_jpeg/decode_image/Substr"
  op: "Substr"
  input: "case/cond/cond_jpeg/decode_image/Substr/Switch"
  input: "case/cond/cond_jpeg/decode_image/Substr/pos"
  input: "case/cond/cond_jpeg/decode_image/Substr/len"
  device: "/device:CPU:0"
  attr {
    key: "T"
    value {
      type: DT_INT32
    }
  }
  attr {
    key: "_output_shapes"
    value {
      list {
        shape {
        }
      }
    }
  }
}
node {
  name: "case/cond/cond_jpeg/decode_image/Substr/Switch"
  op: "Switch"
  input: "case/cond/is_jpeg/Substr/Switch"
  input: "case/cond/cond_jpeg/pred_id"
  device: "/device:CPU:0"
  attr {
    key: "T"
    value {
      type: DT_STRING
    }
  }
  attr {
    key: "_class"
    value {
      list {
        s: "loc:@Reshape_1"
      }
    }
  }
  attr {
    key: "_output_shapes"
    value {
      list {
        shape {
        }
        shape {
        }
      }
    }
  }
}
node {
  name: "case/cond/cond_jpeg/decode_image/is_jpeg/Substr/pos"
  op: "Const"
  input: "^case/Assert/AssertGuard/Merge"
  input: "^case/cond/cond_jpeg/switch_f"
  device: "/device:CPU:0"
  attr {
    key: "_output_shapes"
    value {
      list {
        shape {
        }
      }
    }
  }
  attr {
    key: "dtype"
    value {
      type: DT_INT32
    }
  }
  attr {
    key: "value"
    value {
      tensor {
        dtype: DT_INT32
        tensor_shape {
        }
        int_val: 0
      }
    }
  }
}
node {
  name: "case/cond/cond_jpeg/decode_image/is_jpeg/Substr/len"
  op: "Const"
  input: "^case/Assert/AssertGuard/Merge"
  input: "^case/cond/cond_jpeg/switch_f"
  device: "/device:CPU:0"
  attr {
    key: "_output_shapes"
    value {
      list {
        shape {
        }
      }
    }
  }
  attr {
    key: "dtype"
    value {
      type: DT_INT32
    }
  }
  attr {
    key: "value"
    value {
      tensor {
        dtype: DT_INT32
        tensor_shape {
        }
        int_val: 3
      }
    }
  }
}
node {
  name: "case/cond/cond_jpeg/decode_image/is_jpeg/Substr"
  op: "Substr"
  input: "case/cond/cond_jpeg/decode_image/Substr/Switch"
  input: "case/cond/cond_jpeg/decode_image/is_jpeg/Substr/pos"
  input: "case/cond/cond_jpeg/decode_image/is_jpeg/Substr/len"
  device: "/device:CPU:0"
  attr {
    key: "T"
    value {
      type: DT_INT32
    }
  }
  attr {
    key: "_output_shapes"
    value {
      list {
        shape {
        }
      }
    }
  }
}
node {
  name: "case/cond/cond_jpeg/decode_image/is_jpeg/Equal/y"
  op: "Const"
  input: "^case/Assert/AssertGuard/Merge"
  input: "^case/cond/cond_jpeg/switch_f"
  device: "/device:CPU:0"
  attr {
    key: "_output_shapes"
    value {
      list {
        shape {
        }
      }
    }
  }
  attr {
    key: "dtype"
    value {
      type: DT_STRING
    }
  }
  attr {
    key: "value"
    value {
      tensor {
        dtype: DT_STRING
        tensor_shape {
        }
        string_val: "\377\330\377"
      }
    }
  }
}
node {
  name: "case/cond/cond_jpeg/decode_image/is_jpeg/Equal"
  op: "Equal"
  input: "case/cond/cond_jpeg/decode_image/is_jpeg/Substr"
  input: "case/cond/cond_jpeg/decode_image/is_jpeg/Equal/y"
  device: "/device:CPU:0"
  attr {
    key: "T"
    value {
      type: DT_STRING
    }
  }
  attr {
    key: "_output_shapes"
    value {
      list {
        shape {
        }
      }
    }
  }
}
node {
  name: "case/cond/cond_jpeg/decode_image/cond_jpeg/Switch"
  op: "Switch"
  input: "case/cond/cond_jpeg/decode_image/is_jpeg/Equal"
  input: "case/cond/cond_jpeg/decode_image/is_jpeg/Equal"
  device: "/device:CPU:0"
  attr {
    key: "T"
    value {
      type: DT_BOOL
    }
  }
  attr {
    key: "_output_shapes"
    value {
      list {
        shape {
        }
        shape {
        }
      }
    }
  }
}
node {
  name: "case/cond/cond_jpeg/decode_image/cond_jpeg/switch_t"
  op: "Identity"
  input: "case/cond/cond_jpeg/decode_image/cond_jpeg/Switch:1"
  device: "/device:CPU:0"
  attr {
    key: "T"
    value {
      type: DT_BOOL
    }
  }
  attr {
    key: "_output_shapes"
    value {
      list {
        shape {
        }
      }
    }
  }
}
node {
  name: "case/cond/cond_jpeg/decode_image/cond_jpeg/switch_f"
  op: "Identity"
  input: "case/cond/cond_jpeg/decode_image/cond_jpeg/Switch"
  device: "/device:CPU:0"
  attr {
    key: "T"
    value {
      type: DT_BOOL
    }
  }
  attr {
    key: "_output_shapes"
    value {
      list {
        shape {
        }
      }
    }
  }
}
node {
  name: "case/cond/cond_jpeg/decode_image/cond_jpeg/pred_id"
  op: "Identity"
  input: "case/cond/cond_jpeg/decode_image/is_jpeg/Equal"
  device: "/device:CPU:0"
  attr {
    key: "T"
    value {
      type: DT_BOOL
    }
  }
  attr {
    key: "_output_shapes"
    value {
      list {
        shape {
        }
      }
    }
  }
}
node {
  name: "case/cond/cond_jpeg/decode_image/cond_jpeg/check_jpeg_channels/x"
  op: "Const"
  input: "^case/Assert/AssertGuard/Merge"
  input: "^case/cond/cond_jpeg/decode_image/cond_jpeg/switch_t"
  device: "/device:CPU:0"
  attr {
    key: "_output_shapes"
    value {
      list {
        shape {
        }
      }
    }
  }
  attr {
    key: "dtype"
    value {
      type: DT_INT32
    }
  }
  attr {
    key: "value"
    value {
      tensor {
        dtype: DT_INT32
        tensor_shape {
        }
        int_val: 3
      }
    }
  }
}
node {
  name: "case/cond/cond_jpeg/decode_image/cond_jpeg/check_jpeg_channels/y"
  op: "Const"
  input: "^case/Assert/AssertGuard/Merge"
  input: "^case/cond/cond_jpeg/decode_image/cond_jpeg/switch_t"
  device: "/device:CPU:0"
  attr {
    key: "_output_shapes"
    value {
      list {
        shape {
        }
      }
    }
  }
  attr {
    key: "dtype"
    value {
      type: DT_INT32
    }
  }
  attr {
    key: "value"
    value {
      tensor {
        dtype: DT_INT32
        tensor_shape {
        }
        int_val: 4
      }
    }
  }
}
node {
  name: "case/cond/cond_jpeg/decode_image/cond_jpeg/check_jpeg_channels"
  op: "NotEqual"
  input: "case/cond/cond_jpeg/decode_image/cond_jpeg/check_jpeg_channels/x"
  input: "case/cond/cond_jpeg/decode_image/cond_jpeg/check_jpeg_channels/y"
  device: "/device:CPU:0"
  attr {
    key: "T"
    value {
      type: DT_INT32
    }
  }
  attr {
    key: "_output_shapes"
    value {
      list {
        shape {
        }
      }
    }
  }
}
node {
  name: "case/cond/cond_jpeg/decode_image/cond_jpeg/Assert/Const"
  op: "Const"
  input: "^case/Assert/AssertGuard/Merge"
  input: "^case/cond/cond_jpeg/decode_image/cond_jpeg/switch_t"
  device: "/device:CPU:0"
  attr {
    key: "_output_shapes"
    value {
      list {
        shape {
        }
      }
    }
  }
  attr {
    key: "dtype"
    value {
      type: DT_STRING
    }
  }
  attr {
    key: "value"
    value {
      tensor {
        dtype: DT_STRING
        tensor_shape {
        }
        string_val: "Channels must be in (None, 0, 1, 3) when decoding JPEG images"
      }
    }
  }
}
node {
  name: "case/cond/cond_jpeg/decode_image/cond_jpeg/Assert/Assert/data_0"
  op: "Const"
  input: "^case/Assert/AssertGuard/Merge"
  input: "^case/cond/cond_jpeg/decode_image/cond_jpeg/switch_t"
  device: "/device:CPU:0"
  attr {
    key: "_output_shapes"
    value {
      list {
        shape {
        }
      }
    }
  }
  attr {
    key: "dtype"
    value {
      type: DT_STRING
    }
  }
  attr {
    key: "value"
    value {
      tensor {
        dtype: DT_STRING
        tensor_shape {
        }
        string_val: "Channels must be in (None, 0, 1, 3) when decoding JPEG images"
      }
    }
  }
}
node {
  name: "case/cond/cond_jpeg/decode_image/cond_jpeg/Assert/Assert"
  op: "Assert"
  input: "case/cond/cond_jpeg/decode_image/cond_jpeg/check_jpeg_channels"
  input: "case/cond/cond_jpeg/decode_image/cond_jpeg/Assert/Assert/data_0"
  device: "/device:CPU:0"
  attr {
    key: "T"
    value {
      list {
        type: DT_STRING
      }
    }
  }
  attr {
    key: "summarize"
    value {
      i: 3
    }
  }
}
node {
  name: "case/cond/cond_jpeg/decode_image/cond_jpeg/DecodeJpeg"
  op: "DecodeJpeg"
  input: "case/cond/cond_jpeg/decode_image/cond_jpeg/DecodeJpeg/Switch:1"
  input: "^case/Assert/AssertGuard/Merge"
  input: "^case/cond/cond_jpeg/decode_image/cond_jpeg/Assert/Assert"
  device: "/device:CPU:0"
  attr {
    key: "_output_shapes"
    value {
      list {
        shape {
          dim {
            size: -1
          }
          dim {
            size: -1
          }
          dim {
            size: 3
          }
        }
      }
    }
  }
  attr {
    key: "acceptable_fraction"
    value {
      f: 1.0
    }
  }
  attr {
    key: "channels"
    value {
      i: 3
    }
  }
  attr {
    key: "dct_method"
    value {
      s: ""
    }
  }
  attr {
    key: "fancy_upscaling"
    value {
      b: true
    }
  }
  attr {
    key: "ratio"
    value {
      i: 1
    }
  }
  attr {
    key: "try_recover_truncated"
    value {
      b: false
    }
  }
}
node {
  name: "case/cond/cond_jpeg/decode_image/cond_jpeg/DecodeJpeg/Switch"
  op: "Switch"
  input: "case/cond/cond_jpeg/decode_image/Substr/Switch"
  input: "case/cond/cond_jpeg/decode_image/cond_jpeg/pred_id"
  device: "/device:CPU:0"
  attr {
    key: "T"
    value {
      type: DT_STRING
    }
  }
  attr {
    key: "_class"
    value {
      list {
        s: "loc:@Reshape_1"
      }
    }
  }
  attr {
    key: "_output_shapes"
    value {
      list {
        shape {
        }
        shape {
        }
      }
    }
  }
}
node {
  name: "case/cond/cond_jpeg/decode_image/cond_jpeg/Identity"
  op: "Identity"
  input: "case/cond/cond_jpeg/decode_image/cond_jpeg/DecodeJpeg"
  device: "/device:CPU:0"
  attr {
    key: "T"
    value {
      type: DT_UINT8
    }
  }
  attr {
    key: "_output_shapes"
    value {
      list {
        shape {
          dim {
            size: -1
          }
          dim {
            size: -1
          }
          dim {
            size: 3
          }
        }
      }
    }
  }
}
node {
  name: "case/cond/cond_jpeg/decode_image/cond_jpeg/is_png/Substr/pos"
  op: "Const"
  input: "^case/Assert/AssertGuard/Merge"
  input: "^case/cond/cond_jpeg/decode_image/cond_jpeg/switch_f"
  device: "/device:CPU:0"
  attr {
    key: "_output_shapes"
    value {
      list {
        shape {
        }
      }
    }
  }
  attr {
    key: "dtype"
    value {
      type: DT_INT32
    }
  }
  attr {
    key: "value"
    value {
      tensor {
        dtype: DT_INT32
        tensor_shape {
        }
        int_val: 0
      }
    }
  }
}
node {
  name: "case/cond/cond_jpeg/decode_image/cond_jpeg/is_png/Substr/len"
  op: "Const"
  input: "^case/Assert/AssertGuard/Merge"
  input: "^case/cond/cond_jpeg/decode_image/cond_jpeg/switch_f"
  device: "/device:CPU:0"
  attr {
    key: "_output_shapes"
    value {
      list {
        shape {
        }
      }
    }
  }
  attr {
    key: "dtype"
    value {
      type: DT_INT32
    }
  }
  attr {
    key: "value"
    value {
      tensor {
        dtype: DT_INT32
        tensor_shape {
        }
        int_val: 3
      }
    }
  }
}
node {
  name: "case/cond/cond_jpeg/decode_image/cond_jpeg/is_png/Substr"
  op: "Substr"
  input: "case/cond/cond_jpeg/decode_image/cond_jpeg/is_png/Substr/Switch"
  input: "case/cond/cond_jpeg/decode_image/cond_jpeg/is_png/Substr/pos"
  input: "case/cond/cond_jpeg/decode_image/cond_jpeg/is_png/Substr/len"
  device: "/device:CPU:0"
  attr {
    key: "T"
    value {
      type: DT_INT32
    }
  }
  attr {
    key: "_output_shapes"
    value {
      list {
        shape {
        }
      }
    }
  }
}
node {
  name: "case/cond/cond_jpeg/decode_image/cond_jpeg/is_png/Substr/Switch"
  op: "Switch"
  input: "case/cond/cond_jpeg/decode_image/Substr/Switch"
  input: "case/cond/cond_jpeg/decode_image/cond_jpeg/pred_id"
  device: "/device:CPU:0"
  attr {
    key: "T"
    value {
      type: DT_STRING
    }
  }
  attr {
    key: "_class"
    value {
      list {
        s: "loc:@Reshape_1"
      }
    }
  }
  attr {
    key: "_output_shapes"
    value {
      list {
        shape {
        }
        shape {
        }
      }
    }
  }
}
node {
  name: "case/cond/cond_jpeg/decode_image/cond_jpeg/is_png/Equal/y"
  op: "Const"
  input: "^case/Assert/AssertGuard/Merge"
  input: "^case/cond/cond_jpeg/decode_image/cond_jpeg/switch_f"
  device: "/device:CPU:0"
  attr {
    key: "_output_shapes"
    value {
      list {
        shape {
        }
      }
    }
  }
  attr {
    key: "dtype"
    value {
      type: DT_STRING
    }
  }
  attr {
    key: "value"
    value {
      tensor {
        dtype: DT_STRING
        tensor_shape {
        }
        string_val: "\211PN"
      }
    }
  }
}
node {
  name: "case/cond/cond_jpeg/decode_image/cond_jpeg/is_png/Equal"
  op: "Equal"
  input: "case/cond/cond_jpeg/decode_image/cond_jpeg/is_png/Substr"
  input: "case/cond/cond_jpeg/decode_image/cond_jpeg/is_png/Equal/y"
  device: "/device:CPU:0"
  attr {
    key: "T"
    value {
      type: DT_STRING
    }
  }
  attr {
    key: "_output_shapes"
    value {
      list {
        shape {
        }
      }
    }
  }
}
node {
  name: "case/cond/cond_jpeg/decode_image/cond_jpeg/cond_png/Switch"
  op: "Switch"
  input: "case/cond/cond_jpeg/decode_image/cond_jpeg/is_png/Equal"
  input: "case/cond/cond_jpeg/decode_image/cond_jpeg/is_png/Equal"
  device: "/device:CPU:0"
  attr {
    key: "T"
    value {
      type: DT_BOOL
    }
  }
  attr {
    key: "_output_shapes"
    value {
      list {
        shape {
        }
        shape {
        }
      }
    }
  }
}
node {
  name: "case/cond/cond_jpeg/decode_image/cond_jpeg/cond_png/switch_t"
  op: "Identity"
  input: "case/cond/cond_jpeg/decode_image/cond_jpeg/cond_png/Switch:1"
  device: "/device:CPU:0"
  attr {
    key: "T"
    value {
      type: DT_BOOL
    }
  }
  attr {
    key: "_output_shapes"
    value {
      list {
        shape {
        }
      }
    }
  }
}
node {
  name: "case/cond/cond_jpeg/decode_image/cond_jpeg/cond_png/switch_f"
  op: "Identity"
  input: "case/cond/cond_jpeg/decode_image/cond_jpeg/cond_png/Switch"
  device: "/device:CPU:0"
  attr {
    key: "T"
    value {
      type: DT_BOOL
    }
  }
  attr {
    key: "_output_shapes"
    value {
      list {
        shape {
        }
      }
    }
  }
}
node {
  name: "case/cond/cond_jpeg/decode_image/cond_jpeg/cond_png/pred_id"
  op: "Identity"
  input: "case/cond/cond_jpeg/decode_image/cond_jpeg/is_png/Equal"
  device: "/device:CPU:0"
  attr {
    key: "T"
    value {
      type: DT_BOOL
    }
  }
  attr {
    key: "_output_shapes"
    value {
      list {
        shape {
        }
      }
    }
  }
}
node {
  name: "case/cond/cond_jpeg/decode_image/cond_jpeg/cond_png/DecodePng"
  op: "DecodePng"
  input: "case/cond/cond_jpeg/decode_image/cond_jpeg/cond_png/DecodePng/Switch:1"
  input: "^case/Assert/AssertGuard/Merge"
  device: "/device:CPU:0"
  attr {
    key: "_output_shapes"
    value {
      list {
        shape {
          dim {
            size: -1
          }
          dim {
            size: -1
          }
          dim {
            size: 3
          }
        }
      }
    }
  }
  attr {
    key: "channels"
    value {
      i: 3
    }
  }
  attr {
    key: "dtype"
    value {
      type: DT_UINT8
    }
  }
}
node {
  name: "case/cond/cond_jpeg/decode_image/cond_jpeg/cond_png/DecodePng/Switch"
  op: "Switch"
  input: "case/cond/cond_jpeg/decode_image/cond_jpeg/is_png/Substr/Switch"
  input: "case/cond/cond_jpeg/decode_image/cond_jpeg/cond_png/pred_id"
  device: "/device:CPU:0"
  attr {
    key: "T"
    value {
      type: DT_STRING
    }
  }
  attr {
    key: "_class"
    value {
      list {
        s: "loc:@Reshape_1"
      }
    }
  }
  attr {
    key: "_output_shapes"
    value {
      list {
        shape {
        }
        shape {
        }
      }
    }
  }
}
node {
  name: "case/cond/cond_jpeg/decode_image/cond_jpeg/cond_png/Identity"
  op: "Identity"
  input: "case/cond/cond_jpeg/decode_image/cond_jpeg/cond_png/DecodePng"
  device: "/device:CPU:0"
  attr {
    key: "T"
    value {
      type: DT_UINT8
    }
  }
  attr {
    key: "_output_shapes"
    value {
      list {
        shape {
          dim {
            size: -1
          }
          dim {
            size: -1
          }
          dim {
            size: 3
          }
        }
      }
    }
  }
}
node {
  name: "case/cond/cond_jpeg/decode_image/cond_jpeg/cond_png/is_gif/y"
  op: "Const"
  input: "^case/Assert/AssertGuard/Merge"
  input: "^case/cond/cond_jpeg/decode_image/cond_jpeg/cond_png/switch_f"
  device: "/device:CPU:0"
  attr {
    key: "_output_shapes"
    value {
      list {
        shape {
        }
      }
    }
  }
  attr {
    key: "dtype"
    value {
      type: DT_STRING
    }
  }
  attr {
    key: "value"
    value {
      tensor {
        dtype: DT_STRING
        tensor_shape {
        }
        string_val: "GIF"
      }
    }
  }
}
node {
  name: "case/cond/cond_jpeg/decode_image/cond_jpeg/cond_png/is_gif"
  op: "Equal"
  input: "case/cond/cond_jpeg/decode_image/cond_jpeg/cond_png/is_gif/Switch_1"
  input: "case/cond/cond_jpeg/decode_image/cond_jpeg/cond_png/is_gif/y"
  device: "/device:CPU:0"
  attr {
    key: "T"
    value {
      type: DT_STRING
    }
  }
  attr {
    key: "_output_shapes"
    value {
      list {
        shape {
        }
      }
    }
  }
}
node {
  name: "case/cond/cond_jpeg/decode_image/cond_jpeg/cond_png/is_gif/Switch"
  op: "Switch"
  input: "case/cond/cond_jpeg/decode_image/Substr"
  input: "case/cond/cond_jpeg/decode_image/cond_jpeg/pred_id"
  device: "/device:CPU:0"
  attr {
    key: "T"
    value {
      type: DT_STRING
    }
  }
  attr {
    key: "_class"
    value {
      list {
        s: "loc:@case/cond/cond_jpeg/decode_image/Substr"
      }
    }
  }
  attr {
    key: "_output_shapes"
    value {
      list {
        shape {
        }
        shape {
        }
      }
    }
  }
}
node {
  name: "case/cond/cond_jpeg/decode_image/cond_jpeg/cond_png/is_gif/Switch_1"
  op: "Switch"
  input: "case/cond/cond_jpeg/decode_image/cond_jpeg/cond_png/is_gif/Switch"
  input: "case/cond/cond_jpeg/decode_image/cond_jpeg/cond_png/pred_id"
  device: "/device:CPU:0"
  attr {
    key: "T"
    value {
      type: DT_STRING
    }
  }
  attr {
    key: "_class"
    value {
      list {
        s: "loc:@case/cond/cond_jpeg/decode_image/Substr"
      }
    }
  }
  attr {
    key: "_output_shapes"
    value {
      list {
        shape {
        }
        shape {
        }
      }
    }
  }
}
node {
  name: "case/cond/cond_jpeg/decode_image/cond_jpeg/cond_png/cond_gif/Switch"
  op: "Switch"
  input: "case/cond/cond_jpeg/decode_image/cond_jpeg/cond_png/is_gif"
  input: "case/cond/cond_jpeg/decode_image/cond_jpeg/cond_png/is_gif"
  device: "/device:CPU:0"
  attr {
    key: "T"
    value {
      type: DT_BOOL
    }
  }
  attr {
    key: "_output_shapes"
    value {
      list {
        shape {
        }
        shape {
        }
      }
    }
  }
}
node {
  name: "case/cond/cond_jpeg/decode_image/cond_jpeg/cond_png/cond_gif/switch_t"
  op: "Identity"
  input: "case/cond/cond_jpeg/decode_image/cond_jpeg/cond_png/cond_gif/Switch:1"
  device: "/device:CPU:0"
  attr {
    key: "T"
    value {
      type: DT_BOOL
    }
  }
  attr {
    key: "_output_shapes"
    value {
      list {
        shape {
        }
      }
    }
  }
}
node {
  name: "case/cond/cond_jpeg/decode_image/cond_jpeg/cond_png/cond_gif/switch_f"
  op: "Identity"
  input: "case/cond/cond_jpeg/decode_image/cond_jpeg/cond_png/cond_gif/Switch"
  device: "/device:CPU:0"
  attr {
    key: "T"
    value {
      type: DT_BOOL
    }
  }
  attr {
    key: "_output_shapes"
    value {
      list {
        shape {
        }
      }
    }
  }
}
node {
  name: "case/cond/cond_jpeg/decode_image/cond_jpeg/cond_png/cond_gif/pred_id"
  op: "Identity"
  input: "case/cond/cond_jpeg/decode_image/cond_jpeg/cond_png/is_gif"
  device: "/device:CPU:0"
  attr {
    key: "T"
    value {
      type: DT_BOOL
    }
  }
  attr {
    key: "_output_shapes"
    value {
      list {
        shape {
        }
      }
    }
  }
}
node {
  name: "case/cond/cond_jpeg/decode_image/cond_jpeg/cond_png/cond_gif/check_gif_channels/x"
  op: "Const"
  input: "^case/Assert/AssertGuard/Merge"
  input: "^case/cond/cond_jpeg/decode_image/cond_jpeg/cond_png/cond_gif/switch_t"
  device: "/device:CPU:0"
  attr {
    key: "_output_shapes"
    value {
      list {
        shape {
        }
      }
    }
  }
  attr {
    key: "dtype"
    value {
      type: DT_INT32
    }
  }
  attr {
    key: "value"
    value {
      tensor {
        dtype: DT_INT32
        tensor_shape {
        }
        int_val: 3
      }
    }
  }
}
node {
  name: "case/cond/cond_jpeg/decode_image/cond_jpeg/cond_png/cond_gif/check_gif_channels/y"
  op: "Const"
  input: "^case/Assert/AssertGuard/Merge"
  input: "^case/cond/cond_jpeg/decode_image/cond_jpeg/cond_png/cond_gif/switch_t"
  device: "/device:CPU:0"
  attr {
    key: "_output_shapes"
    value {
      list {
        shape {
        }
      }
    }
  }
  attr {
    key: "dtype"
    value {
      type: DT_INT32
    }
  }
  attr {
    key: "value"
    value {
      tensor {
        dtype: DT_INT32
        tensor_shape {
        }
        int_val: 1
      }
    }
  }
}
node {
  name: "case/cond/cond_jpeg/decode_image/cond_jpeg/cond_png/cond_gif/check_gif_channels"
  op: "NotEqual"
  input: "case/cond/cond_jpeg/decode_image/cond_jpeg/cond_png/cond_gif/check_gif_channels/x"
  input: "case/cond/cond_jpeg/decode_image/cond_jpeg/cond_png/cond_gif/check_gif_channels/y"
  device: "/device:CPU:0"
  attr {
    key: "T"
    value {
      type: DT_INT32
    }
  }
  attr {
    key: "_output_shapes"
    value {
      list {
        shape {
        }
      }
    }
  }
}
node {
  name: "case/cond/cond_jpeg/decode_image/cond_jpeg/cond_png/cond_gif/check_gif_channels_1/x"
  op: "Const"
  input: "^case/Assert/AssertGuard/Merge"
  input: "^case/cond/cond_jpeg/decode_image/cond_jpeg/cond_png/cond_gif/switch_t"
  device: "/device:CPU:0"
  attr {
    key: "_output_shapes"
    value {
      list {
        shape {
        }
      }
    }
  }
  attr {
    key: "dtype"
    value {
      type: DT_INT32
    }
  }
  attr {
    key: "value"
    value {
      tensor {
        dtype: DT_INT32
        tensor_shape {
        }
        int_val: 3
      }
    }
  }
}
node {
  name: "case/cond/cond_jpeg/decode_image/cond_jpeg/cond_png/cond_gif/check_gif_channels_1/y"
  op: "Const"
  input: "^case/Assert/AssertGuard/Merge"
  input: "^case/cond/cond_jpeg/decode_image/cond_jpeg/cond_png/cond_gif/switch_t"
  device: "/device:CPU:0"
  attr {
    key: "_output_shapes"
    value {
      list {
        shape {
        }
      }
    }
  }
  attr {
    key: "dtype"
    value {
      type: DT_INT32
    }
  }
  attr {
    key: "value"
    value {
      tensor {
        dtype: DT_INT32
        tensor_shape {
        }
        int_val: 4
      }
    }
  }
}
node {
  name: "case/cond/cond_jpeg/decode_image/cond_jpeg/cond_png/cond_gif/check_gif_channels_1"
  op: "NotEqual"
  input: "case/cond/cond_jpeg/decode_image/cond_jpeg/cond_png/cond_gif/check_gif_channels_1/x"
  input: "case/cond/cond_jpeg/decode_image/cond_jpeg/cond_png/cond_gif/check_gif_channels_1/y"
  device: "/device:CPU:0"
  attr {
    key: "T"
    value {
      type: DT_INT32
    }
  }
  attr {
    key: "_output_shapes"
    value {
      list {
        shape {
        }
      }
    }
  }
}
node {
  name: "case/cond/cond_jpeg/decode_image/cond_jpeg/cond_png/cond_gif/LogicalAnd"
  op: "LogicalAnd"
  input: "case/cond/cond_jpeg/decode_image/cond_jpeg/cond_png/cond_gif/check_gif_channels"
  input: "case/cond/cond_jpeg/decode_image/cond_jpeg/cond_png/cond_gif/check_gif_channels_1"
  device: "/device:CPU:0"
  attr {
    key: "_output_shapes"
    value {
      list {
        shape {
        }
      }
    }
  }
}
node {
  name: "case/cond/cond_jpeg/decode_image/cond_jpeg/cond_png/cond_gif/Assert/Const"
  op: "Const"
  input: "^case/Assert/AssertGuard/Merge"
  input: "^case/cond/cond_jpeg/decode_image/cond_jpeg/cond_png/cond_gif/switch_t"
  device: "/device:CPU:0"
  attr {
    key: "_output_shapes"
    value {
      list {
        shape {
        }
      }
    }
  }
  attr {
    key: "dtype"
    value {
      type: DT_STRING
    }
  }
  attr {
    key: "value"
    value {
      tensor {
        dtype: DT_STRING
        tensor_shape {
        }
        string_val: "Channels must be in (None, 0, 3) when decoding GIF images"
      }
    }
  }
}
node {
  name: "case/cond/cond_jpeg/decode_image/cond_jpeg/cond_png/cond_gif/Assert/Assert/data_0"
  op: "Const"
  input: "^case/Assert/AssertGuard/Merge"
  input: "^case/cond/cond_jpeg/decode_image/cond_jpeg/cond_png/cond_gif/switch_t"
  device: "/device:CPU:0"
  attr {
    key: "_output_shapes"
    value {
      list {
        shape {
        }
      }
    }
  }
  attr {
    key: "dtype"
    value {
      type: DT_STRING
    }
  }
  attr {
    key: "value"
    value {
      tensor {
        dtype: DT_STRING
        tensor_shape {
        }
        string_val: "Channels must be in (None, 0, 3) when decoding GIF images"
      }
    }
  }
}
node {
  name: "case/cond/cond_jpeg/decode_image/cond_jpeg/cond_png/cond_gif/Assert/Assert"
  op: "Assert"
  input: "case/cond/cond_jpeg/decode_image/cond_jpeg/cond_png/cond_gif/LogicalAnd"
  input: "case/cond/cond_jpeg/decode_image/cond_jpeg/cond_png/cond_gif/Assert/Assert/data_0"
  device: "/device:CPU:0"
  attr {
    key: "T"
    value {
      list {
        type: DT_STRING
      }
    }
  }
  attr {
    key: "summarize"
    value {
      i: 3
    }
  }
}
node {
  name: "case/cond/cond_jpeg/decode_image/cond_jpeg/cond_png/cond_gif/DecodeGif"
  op: "DecodeGif"
  input: "case/cond/cond_jpeg/decode_image/cond_jpeg/cond_png/cond_gif/DecodeGif/Switch_1:1"
  input: "^case/Assert/AssertGuard/Merge"
  input: "^case/cond/cond_jpeg/decode_image/cond_jpeg/cond_png/cond_gif/Assert/Assert"
  device: "/device:CPU:0"
  attr {
    key: "_output_shapes"
    value {
      list {
        shape {
          dim {
            size: -1
          }
          dim {
            size: -1
          }
          dim {
            size: -1
          }
          dim {
            size: 3
          }
        }
      }
    }
  }
}
node {
  name: "case/cond/cond_jpeg/decode_image/cond_jpeg/cond_png/cond_gif/DecodeGif/Switch"
  op: "Switch"
  input: "case/cond/cond_jpeg/decode_image/cond_jpeg/is_png/Substr/Switch"
  input: "case/cond/cond_jpeg/decode_image/cond_jpeg/cond_png/pred_id"
  device: "/device:CPU:0"
  attr {
    key: "T"
    value {
      type: DT_STRING
    }
  }
  attr {
    key: "_class"
    value {
      list {
        s: "loc:@Reshape_1"
      }
    }
  }
  attr {
    key: "_output_shapes"
    value {
      list {
        shape {
        }
        shape {
        }
      }
    }
  }
}
node {
  name: "case/cond/cond_jpeg/decode_image/cond_jpeg/cond_png/cond_gif/DecodeGif/Switch_1"
  op: "Switch"
  input: "case/cond/cond_jpeg/decode_image/cond_jpeg/cond_png/cond_gif/DecodeGif/Switch"
  input: "case/cond/cond_jpeg/decode_image/cond_jpeg/cond_png/cond_gif/pred_id"
  device: "/device:CPU:0"
  attr {
    key: "T"
    value {
      type: DT_STRING
    }
  }
  attr {
    key: "_class"
    value {
      list {
        s: "loc:@Reshape_1"
      }
    }
  }
  attr {
    key: "_output_shapes"
    value {
      list {
        shape {
        }
        shape {
        }
      }
    }
  }
}
node {
  name: "case/cond/cond_jpeg/decode_image/cond_jpeg/cond_png/cond_gif/Identity"
  op: "Identity"
  input: "case/cond/cond_jpeg/decode_image/cond_jpeg/cond_png/cond_gif/DecodeGif"
  device: "/device:CPU:0"
  attr {
    key: "T"
    value {
      type: DT_UINT8
    }
  }
  attr {
    key: "_output_shapes"
    value {
      list {
        shape {
          dim {
            size: -1
          }
          dim {
            size: -1
          }
          dim {
            size: -1
          }
          dim {
            size: 3
          }
        }
      }
    }
  }
}
node {
  name: "case/cond/cond_jpeg/decode_image/cond_jpeg/cond_png/cond_gif/Substr/pos"
  op: "Const"
  input: "^case/Assert/AssertGuard/Merge"
  input: "^case/cond/cond_jpeg/decode_image/cond_jpeg/cond_png/cond_gif/switch_f"
  device: "/device:CPU:0"
  attr {
    key: "_output_shapes"
    value {
      list {
        shape {
        }
      }
    }
  }
  attr {
    key: "dtype"
    value {
      type: DT_INT32
    }
  }
  attr {
    key: "value"
    value {
      tensor {
        dtype: DT_INT32
        tensor_shape {
        }
        int_val: 0
      }
    }
  }
}
node {
  name: "case/cond/cond_jpeg/decode_image/cond_jpeg/cond_png/cond_gif/Substr/len"
  op: "Const"
  input: "^case/Assert/AssertGuard/Merge"
  input: "^case/cond/cond_jpeg/decode_image/cond_jpeg/cond_png/cond_gif/switch_f"
  device: "/device:CPU:0"
  attr {
    key: "_output_shapes"
    value {
      list {
        shape {
        }
      }
    }
  }
  attr {
    key: "dtype"
    value {
      type: DT_INT32
    }
  }
  attr {
    key: "value"
    value {
      tensor {
        dtype: DT_INT32
        tensor_shape {
        }
        int_val: 2
      }
    }
  }
}
node {
  name: "case/cond/cond_jpeg/decode_image/cond_jpeg/cond_png/cond_gif/Substr"
  op: "Substr"
  input: "case/cond/cond_jpeg/decode_image/cond_jpeg/cond_png/cond_gif/Substr/Switch"
  input: "case/cond/cond_jpeg/decode_image/cond_jpeg/cond_png/cond_gif/Substr/pos"
  input: "case/cond/cond_jpeg/decode_image/cond_jpeg/cond_png/cond_gif/Substr/len"
  device: "/device:CPU:0"
  attr {
    key: "T"
    value {
      type: DT_INT32
    }
  }
  attr {
    key: "_output_shapes"
    value {
      list {
        shape {
        }
      }
    }
  }
}
node {
  name: "case/cond/cond_jpeg/decode_image/cond_jpeg/cond_png/cond_gif/Substr/Switch"
  op: "Switch"
  input: "case/cond/cond_jpeg/decode_image/cond_jpeg/cond_png/cond_gif/DecodeGif/Switch"
  input: "case/cond/cond_jpeg/decode_image/cond_jpeg/cond_png/cond_gif/pred_id"
  device: "/device:CPU:0"
  attr {
    key: "T"
    value {
      type: DT_STRING
    }
  }
  attr {
    key: "_class"
    value {
      list {
        s: "loc:@Reshape_1"
      }
    }
  }
  attr {
    key: "_output_shapes"
    value {
      list {
        shape {
        }
        shape {
        }
      }
    }
  }
}
node {
  name: "case/cond/cond_jpeg/decode_image/cond_jpeg/cond_png/cond_gif/is_bmp/y"
  op: "Const"
  input: "^case/Assert/AssertGuard/Merge"
  input: "^case/cond/cond_jpeg/decode_image/cond_jpeg/cond_png/cond_gif/switch_f"
  device: "/device:CPU:0"
  attr {
    key: "_output_shapes"
    value {
      list {
        shape {
        }
      }
    }
  }
  attr {
    key: "dtype"
    value {
      type: DT_STRING
    }
  }
  attr {
    key: "value"
    value {
      tensor {
        dtype: DT_STRING
        tensor_shape {
        }
        string_val: "BM"
      }
    }
  }
}
node {
  name: "case/cond/cond_jpeg/decode_image/cond_jpeg/cond_png/cond_gif/is_bmp"
  op: "Equal"
  input: "case/cond/cond_jpeg/decode_image/cond_jpeg/cond_png/cond_gif/Substr"
  input: "case/cond/cond_jpeg/decode_image/cond_jpeg/cond_png/cond_gif/is_bmp/y"
  device: "/device:CPU:0"
  attr {
    key: "T"
    value {
      type: DT_STRING
    }
  }
  attr {
    key: "_output_shapes"
    value {
      list {
        shape {
        }
      }
    }
  }
}
node {
  name: "case/cond/cond_jpeg/decode_image/cond_jpeg/cond_png/cond_gif/Assert_1/Const"
  op: "Const"
  input: "^case/Assert/AssertGuard/Merge"
  input: "^case/cond/cond_jpeg/decode_image/cond_jpeg/cond_png/cond_gif/switch_f"
  device: "/device:CPU:0"
  attr {
    key: "_output_shapes"
    value {
      list {
        shape {
        }
      }
    }
  }
  attr {
    key: "dtype"
    value {
      type: DT_STRING
    }
  }
  attr {
    key: "value"
    value {
      tensor {
        dtype: DT_STRING
        tensor_shape {
        }
        string_val: "Unable to decode bytes as JPEG, PNG, GIF, or BMP"
      }
    }
  }
}
node {
  name: "case/cond/cond_jpeg/decode_image/cond_jpeg/cond_png/cond_gif/Assert_1/Assert/data_0"
  op: "Const"
  input: "^case/Assert/AssertGuard/Merge"
  input: "^case/cond/cond_jpeg/decode_image/cond_jpeg/cond_png/cond_gif/switch_f"
  device: "/device:CPU:0"
  attr {
    key: "_output_shapes"
    value {
      list {
        shape {
        }
      }
    }
  }
  attr {
    key: "dtype"
    value {
      type: DT_STRING
    }
  }
  attr {
    key: "value"
    value {
      tensor {
        dtype: DT_STRING
        tensor_shape {
        }
        string_val: "Unable to decode bytes as JPEG, PNG, GIF, or BMP"
      }
    }
  }
}
node {
  name: "case/cond/cond_jpeg/decode_image/cond_jpeg/cond_png/cond_gif/Assert_1/Assert"
  op: "Assert"
  input: "case/cond/cond_jpeg/decode_image/cond_jpeg/cond_png/cond_gif/is_bmp"
  input: "case/cond/cond_jpeg/decode_image/cond_jpeg/cond_png/cond_gif/Assert_1/Assert/data_0"
  device: "/device:CPU:0"
  attr {
    key: "T"
    value {
      list {
        type: DT_STRING
      }
    }
  }
  attr {
    key: "summarize"
    value {
      i: 3
    }
  }
}
node {
  name: "case/cond/cond_jpeg/decode_image/cond_jpeg/cond_png/cond_gif/check_channels/x"
  op: "Const"
  input: "^case/Assert/AssertGuard/Merge"
  input: "^case/cond/cond_jpeg/decode_image/cond_jpeg/cond_png/cond_gif/switch_f"
  device: "/device:CPU:0"
  attr {
    key: "_output_shapes"
    value {
      list {
        shape {
        }
      }
    }
  }
  attr {
    key: "dtype"
    value {
      type: DT_INT32
    }
  }
  attr {
    key: "value"
    value {
      tensor {
        dtype: DT_INT32
        tensor_shape {
        }
        int_val: 3
      }
    }
  }
}
node {
  name: "case/cond/cond_jpeg/decode_image/cond_jpeg/cond_png/cond_gif/check_channels/y"
  op: "Const"
  input: "^case/Assert/AssertGuard/Merge"
  input: "^case/cond/cond_jpeg/decode_image/cond_jpeg/cond_png/cond_gif/switch_f"
  device: "/device:CPU:0"
  attr {
    key: "_output_shapes"
    value {
      list {
        shape {
        }
      }
    }
  }
  attr {
    key: "dtype"
    value {
      type: DT_INT32
    }
  }
  attr {
    key: "value"
    value {
      tensor {
        dtype: DT_INT32
        tensor_shape {
        }
        int_val: 1
      }
    }
  }
}
node {
  name: "case/cond/cond_jpeg/decode_image/cond_jpeg/cond_png/cond_gif/check_channels"
  op: "NotEqual"
  input: "case/cond/cond_jpeg/decode_image/cond_jpeg/cond_png/cond_gif/check_channels/x"
  input: "case/cond/cond_jpeg/decode_image/cond_jpeg/cond_png/cond_gif/check_channels/y"
  device: "/device:CPU:0"
  attr {
    key: "T"
    value {
      type: DT_INT32
    }
  }
  attr {
    key: "_output_shapes"
    value {
      list {
        shape {
        }
      }
    }
  }
}
node {
  name: "case/cond/cond_jpeg/decode_image/cond_jpeg/cond_png/cond_gif/Assert_2/Const"
  op: "Const"
  input: "^case/Assert/AssertGuard/Merge"
  input: "^case/cond/cond_jpeg/decode_image/cond_jpeg/cond_png/cond_gif/switch_f"
  device: "/device:CPU:0"
  attr {
    key: "_output_shapes"
    value {
      list {
        shape {
        }
      }
    }
  }
  attr {
    key: "dtype"
    value {
      type: DT_STRING
    }
  }
  attr {
    key: "value"
    value {
      tensor {
        dtype: DT_STRING
        tensor_shape {
        }
        string_val: "Channels must be in (None, 0, 3) when decoding BMP images"
      }
    }
  }
}
node {
  name: "case/cond/cond_jpeg/decode_image/cond_jpeg/cond_png/cond_gif/Assert_2/Assert/data_0"
  op: "Const"
  input: "^case/Assert/AssertGuard/Merge"
  input: "^case/cond/cond_jpeg/decode_image/cond_jpeg/cond_png/cond_gif/switch_f"
  device: "/device:CPU:0"
  attr {
    key: "_output_shapes"
    value {
      list {
        shape {
        }
      }
    }
  }
  attr {
    key: "dtype"
    value {
      type: DT_STRING
    }
  }
  attr {
    key: "value"
    value {
      tensor {
        dtype: DT_STRING
        tensor_shape {
        }
        string_val: "Channels must be in (None, 0, 3) when decoding BMP images"
      }
    }
  }
}
node {
  name: "case/cond/cond_jpeg/decode_image/cond_jpeg/cond_png/cond_gif/Assert_2/Assert"
  op: "Assert"
  input: "case/cond/cond_jpeg/decode_image/cond_jpeg/cond_png/cond_gif/check_channels"
  input: "case/cond/cond_jpeg/decode_image/cond_jpeg/cond_png/cond_gif/Assert_2/Assert/data_0"
  device: "/device:CPU:0"
  attr {
    key: "T"
    value {
      list {
        type: DT_STRING
      }
    }
  }
  attr {
    key: "summarize"
    value {
      i: 3
    }
  }
}
node {
  name: "case/cond/cond_jpeg/decode_image/cond_jpeg/cond_png/cond_gif/DecodeBmp"
  op: "DecodeBmp"
  input: "case/cond/cond_jpeg/decode_image/cond_jpeg/cond_png/cond_gif/Substr/Switch"
  input: "^case/Assert/AssertGuard/Merge"
  input: "^case/cond/cond_jpeg/decode_image/cond_jpeg/cond_png/cond_gif/Assert_1/Assert"
  input: "^case/cond/cond_jpeg/decode_image/cond_jpeg/cond_png/cond_gif/Assert_2/Assert"
  device: "/device:CPU:0"
  attr {
    key: "_output_shapes"
    value {
      list {
        shape {
          dim {
            size: -1
          }
          dim {
            size: -1
          }
          dim {
            size: -1
          }
        }
      }
    }
  }
  attr {
    key: "channels"
    value {
      i: 0
    }
  }
}
node {
  name: "case/cond/cond_jpeg/decode_image/cond_jpeg/cond_png/cond_gif/Identity_1"
  op: "Identity"
  input: "case/cond/cond_jpeg/decode_image/cond_jpeg/cond_png/cond_gif/DecodeBmp"
  device: "/device:CPU:0"
  attr {
    key: "T"
    value {
      type: DT_UINT8
    }
  }
  attr {
    key: "_output_shapes"
    value {
      list {
        shape {
          dim {
            size: -1
          }
          dim {
            size: -1
          }
          dim {
            size: -1
          }
        }
      }
    }
  }
}
node {
  name: "case/cond/cond_jpeg/decode_image/cond_jpeg/cond_png/cond_gif/Merge"
  op: "Merge"
  input: "case/cond/cond_jpeg/decode_image/cond_jpeg/cond_png/cond_gif/Identity_1"
  input: "case/cond/cond_jpeg/decode_image/cond_jpeg/cond_png/cond_gif/Identity"
  device: "/device:CPU:0"
  attr {
    key: "N"
    value {
      i: 2
    }
  }
  attr {
    key: "T"
    value {
      type: DT_UINT8
    }
  }
  attr {
    key: "_output_shapes"
    value {
      list {
        shape {
          unknown_rank: true
        }
        shape {
        }
      }
    }
  }
}
node {
  name: "case/cond/cond_jpeg/decode_image/cond_jpeg/cond_png/Merge"
  op: "Merge"
  input: "case/cond/cond_jpeg/decode_image/cond_jpeg/cond_png/cond_gif/Merge"
  input: "case/cond/cond_jpeg/decode_image/cond_jpeg/cond_png/Identity"
  device: "/device:CPU:0"
  attr {
    key: "N"
    value {
      i: 2
    }
  }
  attr {
    key: "T"
    value {
      type: DT_UINT8
    }
  }
  attr {
    key: "_output_shapes"
    value {
      list {
        shape {
          unknown_rank: true
        }
        shape {
        }
      }
    }
  }
}
node {
  name: "case/cond/cond_jpeg/decode_image/cond_jpeg/Merge"
  op: "Merge"
  input: "case/cond/cond_jpeg/decode_image/cond_jpeg/cond_png/Merge"
  input: "case/cond/cond_jpeg/decode_image/cond_jpeg/Identity"
  device: "/device:CPU:0"
  attr {
    key: "N"
    value {
      i: 2
    }
  }
  attr {
    key: "T"
    value {
      type: DT_UINT8
    }
  }
  attr {
    key: "_output_shapes"
    value {
      list {
        shape {
          unknown_rank: true
        }
        shape {
        }
      }
    }
  }
}
node {
  name: "case/cond/cond_jpeg/Merge"
  op: "Merge"
  input: "case/cond/cond_jpeg/decode_image/cond_jpeg/Merge"
  input: "case/cond/cond_jpeg/DecodeJpeg"
  device: "/device:CPU:0"
  attr {
    key: "N"
    value {
      i: 2
    }
  }
  attr {
    key: "T"
    value {
      type: DT_UINT8
    }
  }
  attr {
    key: "_output_shapes"
    value {
      list {
        shape {
          unknown_rank: true
        }
        shape {
        }
      }
    }
  }
}
node {
  name: "case/cond/Merge"
  op: "Merge"
  input: "case/cond/cond_jpeg/Merge"
  input: "case/cond/DecodeRaw"
  device: "/device:CPU:0"
  attr {
    key: "N"
    value {
      i: 2
    }
  }
  attr {
    key: "T"
    value {
      type: DT_UINT8
    }
  }
  attr {
    key: "_output_shapes"
    value {
      list {
        shape {
          dim {
            size: -1
          }
          dim {
            size: -1
          }
          dim {
            size: 3
          }
        }
        shape {
        }
      }
    }
  }
}
node {
  name: "sub/y"
  op: "Const"
  device: "/device:CPU:0"
  attr {
    key: "_output_shapes"
    value {
      list {
        shape {
        }
      }
    }
  }
  attr {
    key: "dtype"
    value {
      type: DT_INT64
    }
  }
  attr {
    key: "value"
    value {
      tensor {
        dtype: DT_INT64
        tensor_shape {
        }
        int64_val: 0
      }
    }
  }
}
node {
  name: "sub"
  op: "Sub"
  input: "Reshape"
  input: "sub/y"
  device: "/device:CPU:0"
  attr {
    key: "T"
    value {
      type: DT_INT64
    }
  }
  attr {
    key: "_output_shapes"
    value {
      list {
        shape {
        }
      }
    }
  }
}
node {
  name: "distort_image/Const"
  op: "Const"
  device: "/device:CPU:0"
  attr {
    key: "_output_shapes"
    value {
      list {
        shape {
          dim {
            size: 1
          }
          dim {
            size: 1
          }
          dim {
            size: 4
          }
        }
      }
    }
  }
  attr {
    key: "dtype"
    value {
      type: DT_FLOAT
    }
  }
  attr {
    key: "value"
    value {
      tensor {
        dtype: DT_FLOAT
        tensor_shape {
          dim {
            size: 1
          }
          dim {
            size: 1
          }
          dim {
            size: 4
          }
        }
        tensor_content: "\000\000\000\000\000\000\000\000\000\000\200?\000\000\200?"
      }
    }
  }
}
node {
  name: "distort_image/convert_image/Cast"
  op: "Cast"
  input: "case/cond/Merge"
  device: "/device:CPU:0"
  attr {
    key: "DstT"
    value {
      type: DT_FLOAT
    }
  }
  attr {
    key: "SrcT"
    value {
      type: DT_UINT8
    }
  }
  attr {
    key: "Truncate"
    value {
      b: false
    }
  }
  attr {
    key: "_output_shapes"
    value {
      list {
        shape {
          dim {
            size: -1
          }
          dim {
            size: -1
          }
          dim {
            size: 3
          }
        }
      }
    }
  }
}
node {
  name: "distort_image/convert_image/y"
  op: "Const"
  device: "/device:CPU:0"
  attr {
    key: "_output_shapes"
    value {
      list {
        shape {
        }
      }
    }
  }
  attr {
    key: "dtype"
    value {
      type: DT_FLOAT
    }
  }
  attr {
    key: "value"
    value {
      tensor {
        dtype: DT_FLOAT
        tensor_shape {
        }
        float_val: 0.00392156885937
      }
    }
  }
}
node {
  name: "distort_image/convert_image"
  op: "Mul"
  input: "distort_image/convert_image/Cast"
  input: "distort_image/convert_image/y"
  device: "/device:CPU:0"
  attr {
    key: "T"
    value {
      type: DT_FLOAT
    }
  }
  attr {
    key: "_output_shapes"
    value {
      list {
        shape {
          dim {
            size: -1
          }
          dim {
            size: -1
          }
          dim {
            size: 3
          }
        }
      }
    }
  }
}
node {
  name: "distort_image/ExpandDims/dim"
  op: "Const"
  device: "/device:CPU:0"
  attr {
    key: "_output_shapes"
    value {
      list {
        shape {
        }
      }
    }
  }
  attr {
    key: "dtype"
    value {
      type: DT_INT32
    }
  }
  attr {
    key: "value"
    value {
      tensor {
        dtype: DT_INT32
        tensor_shape {
        }
        int_val: 0
      }
    }
  }
}
node {
  name: "distort_image/ExpandDims"
  op: "ExpandDims"
  input: "distort_image/convert_image"
  input: "distort_image/ExpandDims/dim"
  device: "/device:CPU:0"
  attr {
    key: "T"
    value {
      type: DT_FLOAT
    }
  }
  attr {
    key: "Tdim"
    value {
      type: DT_INT32
    }
  }
  attr {
    key: "_output_shapes"
    value {
      list {
        shape {
          dim {
            size: 1
          }
          dim {
            size: -1
          }
          dim {
            size: -1
          }
          dim {
            size: 3
          }
        }
      }
    }
  }
}
node {
  name: "distort_image/DrawBoundingBoxes"
  op: "DrawBoundingBoxes"
  input: "distort_image/ExpandDims"
  input: "distort_image/Const"
  device: "/device:CPU:0"
  attr {
    key: "T"
    value {
      type: DT_FLOAT
    }
  }
  attr {
    key: "_output_shapes"
    value {
      list {
        shape {
          dim {
            size: 1
          }
          dim {
            size: -1
          }
          dim {
            size: -1
          }
          dim {
            size: 3
          }
        }
      }
    }
  }
}
node {
  name: "distort_image/image_with_bounding_boxes/tag"
  op: "Const"
  device: "/device:CPU:0"
  attr {
    key: "_output_shapes"
    value {
      list {
        shape {
        }
      }
    }
  }
  attr {
    key: "dtype"
    value {
      type: DT_STRING
    }
  }
  attr {
    key: "value"
    value {
      tensor {
        dtype: DT_STRING
        tensor_shape {
        }
        string_val: "distort_image/image_with_bounding_boxes"
      }
    }
  }
}
node {
  name: "distort_image/image_with_bounding_boxes"
  op: "ImageSummary"
  input: "distort_image/image_with_bounding_boxes/tag"
  input: "distort_image/DrawBoundingBoxes"
  device: "/device:CPU:0"
  attr {
    key: "T"
    value {
      type: DT_FLOAT
    }
  }
  attr {
    key: "_output_shapes"
    value {
      list {
        shape {
        }
      }
    }
  }
  attr {
    key: "bad_color"
    value {
      tensor {
        dtype: DT_UINT8
        tensor_shape {
          dim {
            size: 4
          }
        }
        int_val: 255
        int_val: 0
        int_val: 0
        int_val: 255
      }
    }
  }
  attr {
    key: "max_images"
    value {
      i: 3
    }
  }
}
node {
  name: "distort_image/distorted_bounding_box_crop/Shape"
  op: "Shape"
  input: "distort_image/convert_image"
  device: "/device:CPU:0"
  attr {
    key: "T"
    value {
      type: DT_FLOAT
    }
  }
  attr {
    key: "_output_shapes"
    value {
      list {
        shape {
          dim {
            size: 3
          }
        }
      }
    }
  }
  attr {
    key: "out_type"
    value {
      type: DT_INT32
    }
  }
}
node {
  name: "distort_image/distorted_bounding_box_crop/sample_distorted_bounding_box/SampleDistortedBoundingBoxV2/min_object_covered"
  op: "Const"
  device: "/device:CPU:0"
  attr {
    key: "_output_shapes"
    value {
      list {
        shape {
        }
      }
    }
  }
  attr {
    key: "dtype"
    value {
      type: DT_FLOAT
    }
  }
  attr {
    key: "value"
    value {
      tensor {
        dtype: DT_FLOAT
        tensor_shape {
        }
        float_val: 0.10000000149
      }
    }
  }
}
node {
  name: "distort_image/distorted_bounding_box_crop/sample_distorted_bounding_box/SampleDistortedBoundingBoxV2"
  op: "SampleDistortedBoundingBoxV2"
  input: "distort_image/distorted_bounding_box_crop/Shape"
  input: "distort_image/Const"
  input: "distort_image/distorted_bounding_box_crop/sample_distorted_bounding_box/SampleDistortedBoundingBoxV2/min_object_covered"
  device: "/device:CPU:0"
  attr {
    key: "T"
    value {
      type: DT_INT32
    }
  }
  attr {
    key: "_output_shapes"
    value {
      list {
        shape {
          dim {
            size: 3
          }
        }
        shape {
          dim {
            size: 3
          }
        }
        shape {
          dim {
            size: 1
          }
          dim {
            size: 1
          }
          dim {
            size: 4
          }
        }
      }
    }
  }
  attr {
    key: "area_range"
    value {
      list {
        f: 0.0500000007451
        f: 1.0
      }
    }
  }
  attr {
    key: "aspect_ratio_range"
    value {
      list {
        f: 0.75
        f: 1.33000004292
      }
    }
  }
  attr {
    key: "max_attempts"
    value {
      i: 100
    }
  }
  attr {
    key: "seed"
    value {
      i: 0
    }
  }
  attr {
    key: "seed2"
    value {
      i: 0
    }
  }
  attr {
    key: "use_image_if_no_bounding_boxes"
    value {
      b: true
    }
  }
}
node {
  name: "distort_image/distorted_bounding_box_crop/Slice"
  op: "Slice"
  input: "distort_image/convert_image"
  input: "distort_image/distorted_bounding_box_crop/sample_distorted_bounding_box/SampleDistortedBoundingBoxV2"
  input: "distort_image/distorted_bounding_box_crop/sample_distorted_bounding_box/SampleDistortedBoundingBoxV2:1"
  device: "/device:CPU:0"
  attr {
    key: "Index"
    value {
      type: DT_INT32
    }
  }
  attr {
    key: "T"
    value {
      type: DT_FLOAT
    }
  }
  attr {
    key: "_output_shapes"
    value {
      list {
        shape {
          dim {
            size: -1
          }
          dim {
            size: -1
          }
          dim {
            size: 3
          }
        }
      }
    }
  }
}
node {
  name: "distort_image/ExpandDims_1/dim"
  op: "Const"
  device: "/device:CPU:0"
  attr {
    key: "_output_shapes"
    value {
      list {
        shape {
        }
      }
    }
  }
  attr {
    key: "dtype"
    value {
      type: DT_INT32
    }
  }
  attr {
    key: "value"
    value {
      tensor {
        dtype: DT_INT32
        tensor_shape {
        }
        int_val: 0
      }
    }
  }
}
node {
  name: "distort_image/ExpandDims_1"
  op: "ExpandDims"
  input: "distort_image/convert_image"
  input: "distort_image/ExpandDims_1/dim"
  device: "/device:CPU:0"
  attr {
    key: "T"
    value {
      type: DT_FLOAT
    }
  }
  attr {
    key: "Tdim"
    value {
      type: DT_INT32
    }
  }
  attr {
    key: "_output_shapes"
    value {
      list {
        shape {
          dim {
            size: 1
          }
          dim {
            size: -1
          }
          dim {
            size: -1
          }
          dim {
            size: 3
          }
        }
      }
    }
  }
}
node {
  name: "distort_image/DrawBoundingBoxes_1"
  op: "DrawBoundingBoxes"
  input: "distort_image/ExpandDims_1"
  input: "distort_image/distorted_bounding_box_crop/sample_distorted_bounding_box/SampleDistortedBoundingBoxV2:2"
  device: "/device:CPU:0"
  attr {
    key: "T"
    value {
      type: DT_FLOAT
    }
  }
  attr {
    key: "_output_shapes"
    value {
      list {
        shape {
          dim {
            size: 1
          }
          dim {
            size: -1
          }
          dim {
            size: -1
          }
          dim {
            size: 3
          }
        }
      }
    }
  }
}
node {
  name: "distort_image/images_with_distorted_bounding_box/tag"
  op: "Const"
  device: "/device:CPU:0"
  attr {
    key: "_output_shapes"
    value {
      list {
        shape {
        }
      }
    }
  }
  attr {
    key: "dtype"
    value {
      type: DT_STRING
    }
  }
  attr {
    key: "value"
    value {
      tensor {
        dtype: DT_STRING
        tensor_shape {
        }
        string_val: "distort_image/images_with_distorted_bounding_box"
      }
    }
  }
}
node {
  name: "distort_image/images_with_distorted_bounding_box"
  op: "ImageSummary"
  input: "distort_image/images_with_distorted_bounding_box/tag"
  input: "distort_image/DrawBoundingBoxes_1"
  device: "/device:CPU:0"
  attr {
    key: "T"
    value {
      type: DT_FLOAT
    }
  }
  attr {
    key: "_output_shapes"
    value {
      list {
        shape {
        }
      }
    }
  }
  attr {
    key: "bad_color"
    value {
      tensor {
        dtype: DT_UINT8
        tensor_shape {
          dim {
            size: 4
          }
        }
        int_val: 255
        int_val: 0
        int_val: 0
        int_val: 255
      }
    }
  }
  attr {
    key: "max_images"
    value {
      i: 3
    }
  }
}
node {
  name: "distort_image/random_uniform/shape"
  op: "Const"
  device: "/device:CPU:0"
  attr {
    key: "_output_shapes"
    value {
      list {
        shape {
          dim {
          }
        }
      }
    }
  }
  attr {
    key: "dtype"
    value {
      type: DT_INT32
    }
  }
  attr {
    key: "value"
    value {
      tensor {
        dtype: DT_INT32
        tensor_shape {
          dim {
          }
        }
      }
    }
  }
}
node {
  name: "distort_image/random_uniform/min"
  op: "Const"
  device: "/device:CPU:0"
  attr {
    key: "_output_shapes"
    value {
      list {
        shape {
        }
      }
    }
  }
  attr {
    key: "dtype"
    value {
      type: DT_INT32
    }
  }
  attr {
    key: "value"
    value {
      tensor {
        dtype: DT_INT32
        tensor_shape {
        }
        int_val: 0
      }
    }
  }
}
node {
  name: "distort_image/random_uniform/max"
  op: "Const"
  device: "/device:CPU:0"
  attr {
    key: "_output_shapes"
    value {
      list {
        shape {
        }
      }
    }
  }
  attr {
    key: "dtype"
    value {
      type: DT_INT32
    }
  }
  attr {
    key: "value"
    value {
      tensor {
        dtype: DT_INT32
        tensor_shape {
        }
        int_val: 1
      }
    }
  }
}
node {
  name: "distort_image/random_uniform"
  op: "RandomUniformInt"
  input: "distort_image/random_uniform/shape"
  input: "distort_image/random_uniform/min"
  input: "distort_image/random_uniform/max"
  device: "/device:CPU:0"
  attr {
    key: "T"
    value {
      type: DT_INT32
    }
  }
  attr {
    key: "Tout"
    value {
      type: DT_INT32
    }
  }
  attr {
    key: "_output_shapes"
    value {
      list {
        shape {
        }
      }
    }
  }
  attr {
    key: "seed"
    value {
      i: 0
    }
  }
  attr {
    key: "seed2"
    value {
      i: 0
    }
  }
}
node {
  name: "distort_image/Equal/y"
  op: "Const"
  device: "/device:CPU:0"
  attr {
    key: "_output_shapes"
    value {
      list {
        shape {
        }
      }
    }
  }
  attr {
    key: "dtype"
    value {
      type: DT_INT32
    }
  }
  attr {
    key: "value"
    value {
      tensor {
        dtype: DT_INT32
        tensor_shape {
        }
        int_val: 0
      }
    }
  }
}
node {
  name: "distort_image/Equal"
  op: "Equal"
  input: "distort_image/random_uniform"
  input: "distort_image/Equal/y"
  device: "/device:CPU:0"
  attr {
    key: "T"
    value {
      type: DT_INT32
    }
  }
  attr {
    key: "_output_shapes"
    value {
      list {
        shape {
        }
      }
    }
  }
}
node {
  name: "distort_image/Switch"
  op: "Switch"
  input: "distort_image/distorted_bounding_box_crop/Slice"
  input: "distort_image/Equal"
  device: "/device:CPU:0"
  attr {
    key: "T"
    value {
      type: DT_FLOAT
    }
  }
  attr {
    key: "_output_shapes"
    value {
      list {
        shape {
          dim {
            size: -1
          }
          dim {
            size: -1
          }
          dim {
            size: 3
          }
        }
        shape {
          dim {
            size: -1
          }
          dim {
            size: -1
          }
          dim {
            size: 3
          }
        }
      }
    }
  }
}
node {
  name: "distort_image/resize_images/ExpandDims/dim"
  op: "Const"
  device: "/device:CPU:0"
  attr {
    key: "_output_shapes"
    value {
      list {
        shape {
        }
      }
    }
  }
  attr {
    key: "dtype"
    value {
      type: DT_INT32
    }
  }
  attr {
    key: "value"
    value {
      tensor {
        dtype: DT_INT32
        tensor_shape {
        }
        int_val: 0
      }
    }
  }
}
node {
  name: "distort_image/resize_images/ExpandDims"
  op: "ExpandDims"
  input: "distort_image/Switch:1"
  input: "distort_image/resize_images/ExpandDims/dim"
  device: "/device:CPU:0"
  attr {
    key: "T"
    value {
      type: DT_FLOAT
    }
  }
  attr {
    key: "Tdim"
    value {
      type: DT_INT32
    }
  }
  attr {
    key: "_output_shapes"
    value {
      list {
        shape {
          dim {
            size: 1
          }
          dim {
            size: -1
          }
          dim {
            size: -1
          }
          dim {
            size: 3
          }
        }
      }
    }
  }
}
node {
  name: "distort_image/resize_images/size"
  op: "Const"
  device: "/device:CPU:0"
  attr {
    key: "_output_shapes"
    value {
      list {
        shape {
          dim {
            size: 2
          }
        }
      }
    }
  }
  attr {
    key: "dtype"
    value {
      type: DT_INT32
    }
  }
  attr {
    key: "value"
    value {
      tensor {
        dtype: DT_INT32
        tensor_shape {
          dim {
            size: 2
          }
        }
        tensor_content: "\340\000\000\000\340\000\000\000"
      }
    }
  }
}
node {
  name: "distort_image/resize_images/ResizeBilinear"
  op: "ResizeBilinear"
  input: "distort_image/resize_images/ExpandDims"
  input: "distort_image/resize_images/size"
  device: "/device:CPU:0"
  attr {
    key: "T"
    value {
      type: DT_FLOAT
    }
  }
  attr {
    key: "_output_shapes"
    value {
      list {
        shape {
          dim {
            size: 1
          }
          dim {
            size: 224
          }
          dim {
            size: 224
          }
          dim {
            size: 3
          }
        }
      }
    }
  }
  attr {
    key: "align_corners"
    value {
      b: false
    }
  }
}
node {
  name: "distort_image/resize_images/Squeeze"
  op: "Squeeze"
  input: "distort_image/resize_images/ResizeBilinear"
  device: "/device:CPU:0"
  attr {
    key: "T"
    value {
      type: DT_FLOAT
    }
  }
  attr {
    key: "_output_shapes"
    value {
      list {
        shape {
          dim {
            size: 224
          }
          dim {
            size: 224
          }
          dim {
            size: 3
          }
        }
      }
    }
  }
  attr {
    key: "squeeze_dims"
    value {
      list {
        i: 0
      }
    }
  }
}
node {
  name: "distort_image/Merge"
  op: "Merge"
  input: "distort_image/resize_images/Squeeze"
  device: "/device:CPU:0"
  attr {
    key: "N"
    value {
      i: 1
    }
  }
  attr {
    key: "T"
    value {
      type: DT_FLOAT
    }
  }
  attr {
    key: "_output_shapes"
    value {
      list {
        shape {
          dim {
            size: 224
          }
          dim {
            size: 224
          }
          dim {
            size: 3
          }
        }
        shape {
        }
      }
    }
  }
}
node {
  name: "distort_image/ExpandDims_2/dim"
  op: "Const"
  device: "/device:CPU:0"
  attr {
    key: "_output_shapes"
    value {
      list {
        shape {
        }
      }
    }
  }
  attr {
    key: "dtype"
    value {
      type: DT_INT32
    }
  }
  attr {
    key: "value"
    value {
      tensor {
        dtype: DT_INT32
        tensor_shape {
        }
        int_val: 0
      }
    }
  }
}
node {
  name: "distort_image/ExpandDims_2"
  op: "ExpandDims"
  input: "distort_image/Merge"
  input: "distort_image/ExpandDims_2/dim"
  device: "/device:CPU:0"
  attr {
    key: "T"
    value {
      type: DT_FLOAT
    }
  }
  attr {
    key: "Tdim"
    value {
      type: DT_INT32
    }
  }
  attr {
    key: "_output_shapes"
    value {
      list {
        shape {
          dim {
            size: 1
          }
          dim {
            size: 224
          }
          dim {
            size: 224
          }
          dim {
            size: 3
          }
        }
      }
    }
  }
}
node {
  name: "distort_image/cropped_resized_image/tag"
  op: "Const"
  device: "/device:CPU:0"
  attr {
    key: "_output_shapes"
    value {
      list {
        shape {
        }
      }
    }
  }
  attr {
    key: "dtype"
    value {
      type: DT_STRING
    }
  }
  attr {
    key: "value"
    value {
      tensor {
        dtype: DT_STRING
        tensor_shape {
        }
        string_val: "distort_image/cropped_resized_image"
      }
    }
  }
}
node {
  name: "distort_image/cropped_resized_image"
  op: "ImageSummary"
  input: "distort_image/cropped_resized_image/tag"
  input: "distort_image/ExpandDims_2"
  device: "/device:CPU:0"
  attr {
    key: "T"
    value {
      type: DT_FLOAT
    }
  }
  attr {
    key: "_output_shapes"
    value {
      list {
        shape {
        }
      }
    }
  }
  attr {
    key: "bad_color"
    value {
      tensor {
        dtype: DT_UINT8
        tensor_shape {
          dim {
            size: 4
          }
        }
        int_val: 255
        int_val: 0
        int_val: 0
        int_val: 255
      }
    }
  }
  attr {
    key: "max_images"
    value {
      i: 3
    }
  }
}
node {
  name: "distort_image/random_flip_left_right/control_dependency"
  op: "Identity"
  input: "distort_image/Merge"
  device: "/device:CPU:0"
  attr {
    key: "T"
    value {
      type: DT_FLOAT
    }
  }
  attr {
    key: "_class"
    value {
      list {
        s: "loc:@distort_image/Merge"
      }
    }
  }
  attr {
    key: "_output_shapes"
    value {
      list {
        shape {
          dim {
            size: 224
          }
          dim {
            size: 224
          }
          dim {
            size: 3
          }
        }
      }
    }
  }
}
node {
  name: "distort_image/random_flip_left_right/random_uniform/shape"
  op: "Const"
  device: "/device:CPU:0"
  attr {
    key: "_output_shapes"
    value {
      list {
        shape {
          dim {
          }
        }
      }
    }
  }
  attr {
    key: "dtype"
    value {
      type: DT_INT32
    }
  }
  attr {
    key: "value"
    value {
      tensor {
        dtype: DT_INT32
        tensor_shape {
          dim {
          }
        }
      }
    }
  }
}
node {
  name: "distort_image/random_flip_left_right/random_uniform/min"
  op: "Const"
  device: "/device:CPU:0"
  attr {
    key: "_output_shapes"
    value {
      list {
        shape {
        }
      }
    }
  }
  attr {
    key: "dtype"
    value {
      type: DT_FLOAT
    }
  }
  attr {
    key: "value"
    value {
      tensor {
        dtype: DT_FLOAT
        tensor_shape {
        }
        float_val: 0.0
      }
    }
  }
}
node {
  name: "distort_image/random_flip_left_right/random_uniform/max"
  op: "Const"
  device: "/device:CPU:0"
  attr {
    key: "_output_shapes"
    value {
      list {
        shape {
        }
      }
    }
  }
  attr {
    key: "dtype"
    value {
      type: DT_FLOAT
    }
  }
  attr {
    key: "value"
    value {
      tensor {
        dtype: DT_FLOAT
        tensor_shape {
        }
        float_val: 1.0
      }
    }
  }
}
node {
  name: "distort_image/random_flip_left_right/random_uniform/RandomUniform"
  op: "RandomUniform"
  input: "distort_image/random_flip_left_right/random_uniform/shape"
  device: "/device:CPU:0"
  attr {
    key: "T"
    value {
      type: DT_INT32
    }
  }
  attr {
    key: "_output_shapes"
    value {
      list {
        shape {
        }
      }
    }
  }
  attr {
    key: "dtype"
    value {
      type: DT_FLOAT
    }
  }
  attr {
    key: "seed"
    value {
      i: 0
    }
  }
  attr {
    key: "seed2"
    value {
      i: 0
    }
  }
}
node {
  name: "distort_image/random_flip_left_right/random_uniform/sub"
  op: "Sub"
  input: "distort_image/random_flip_left_right/random_uniform/max"
  input: "distort_image/random_flip_left_right/random_uniform/min"
  device: "/device:CPU:0"
  attr {
    key: "T"
    value {
      type: DT_FLOAT
    }
  }
  attr {
    key: "_output_shapes"
    value {
      list {
        shape {
        }
      }
    }
  }
}
node {
  name: "distort_image/random_flip_left_right/random_uniform/mul"
  op: "Mul"
  input: "distort_image/random_flip_left_right/random_uniform/RandomUniform"
  input: "distort_image/random_flip_left_right/random_uniform/sub"
  device: "/device:CPU:0"
  attr {
    key: "T"
    value {
      type: DT_FLOAT
    }
  }
  attr {
    key: "_output_shapes"
    value {
      list {
        shape {
        }
      }
    }
  }
}
node {
  name: "distort_image/random_flip_left_right/random_uniform"
  op: "Add"
  input: "distort_image/random_flip_left_right/random_uniform/mul"
  input: "distort_image/random_flip_left_right/random_uniform/min"
  device: "/device:CPU:0"
  attr {
    key: "T"
    value {
      type: DT_FLOAT
    }
  }
  attr {
    key: "_output_shapes"
    value {
      list {
        shape {
        }
      }
    }
  }
}
node {
  name: "distort_image/random_flip_left_right/Less/y"
  op: "Const"
  device: "/device:CPU:0"
  attr {
    key: "_output_shapes"
    value {
      list {
        shape {
        }
      }
    }
  }
  attr {
    key: "dtype"
    value {
      type: DT_FLOAT
    }
  }
  attr {
    key: "value"
    value {
      tensor {
        dtype: DT_FLOAT
        tensor_shape {
        }
        float_val: 0.5
      }
    }
  }
}
node {
  name: "distort_image/random_flip_left_right/Less"
  op: "Less"
  input: "distort_image/random_flip_left_right/random_uniform"
  input: "distort_image/random_flip_left_right/Less/y"
  device: "/device:CPU:0"
  attr {
    key: "T"
    value {
      type: DT_FLOAT
    }
  }
  attr {
    key: "_output_shapes"
    value {
      list {
        shape {
        }
      }
    }
  }
}
node {
  name: "distort_image/random_flip_left_right/Switch"
  op: "Switch"
  input: "distort_image/random_flip_left_right/Less"
  input: "distort_image/random_flip_left_right/Less"
  device: "/device:CPU:0"
  attr {
    key: "T"
    value {
      type: DT_BOOL
    }
  }
  attr {
    key: "_output_shapes"
    value {
      list {
        shape {
        }
        shape {
        }
      }
    }
  }
}
node {
  name: "distort_image/random_flip_left_right/switch_t"
  op: "Identity"
  input: "distort_image/random_flip_left_right/Switch:1"
  device: "/device:CPU:0"
  attr {
    key: "T"
    value {
      type: DT_BOOL
    }
  }
  attr {
    key: "_output_shapes"
    value {
      list {
        shape {
        }
      }
    }
  }
}
node {
  name: "distort_image/random_flip_left_right/switch_f"
  op: "Identity"
  input: "distort_image/random_flip_left_right/Switch"
  device: "/device:CPU:0"
  attr {
    key: "T"
    value {
      type: DT_BOOL
    }
  }
  attr {
    key: "_output_shapes"
    value {
      list {
        shape {
        }
      }
    }
  }
}
node {
  name: "distort_image/random_flip_left_right/pred_id"
  op: "Identity"
  input: "distort_image/random_flip_left_right/Less"
  device: "/device:CPU:0"
  attr {
    key: "T"
    value {
      type: DT_BOOL
    }
  }
  attr {
    key: "_output_shapes"
    value {
      list {
        shape {
        }
      }
    }
  }
}
node {
  name: "distort_image/random_flip_left_right/ReverseV2/axis"
  op: "Const"
  input: "^distort_image/random_flip_left_right/switch_t"
  device: "/device:CPU:0"
  attr {
    key: "_output_shapes"
    value {
      list {
        shape {
          dim {
            size: 1
          }
        }
      }
    }
  }
  attr {
    key: "dtype"
    value {
      type: DT_INT32
    }
  }
  attr {
    key: "value"
    value {
      tensor {
        dtype: DT_INT32
        tensor_shape {
          dim {
            size: 1
          }
        }
        int_val: 1
      }
    }
  }
}
node {
  name: "distort_image/random_flip_left_right/ReverseV2"
  op: "ReverseV2"
  input: "distort_image/random_flip_left_right/ReverseV2/Switch:1"
  input: "distort_image/random_flip_left_right/ReverseV2/axis"
  device: "/device:CPU:0"
  attr {
    key: "T"
    value {
      type: DT_FLOAT
    }
  }
  attr {
    key: "Tidx"
    value {
      type: DT_INT32
    }
  }
  attr {
    key: "_output_shapes"
    value {
      list {
        shape {
          dim {
            size: 224
          }
          dim {
            size: 224
          }
          dim {
            size: 3
          }
        }
      }
    }
  }
}
node {
  name: "distort_image/random_flip_left_right/ReverseV2/Switch"
  op: "Switch"
  input: "distort_image/random_flip_left_right/control_dependency"
  input: "distort_image/random_flip_left_right/pred_id"
  device: "/device:CPU:0"
  attr {
    key: "T"
    value {
      type: DT_FLOAT
    }
  }
  attr {
    key: "_class"
    value {
      list {
        s: "loc:@distort_image/Merge"
      }
    }
  }
  attr {
    key: "_output_shapes"
    value {
      list {
        shape {
          dim {
            size: 224
          }
          dim {
            size: 224
          }
          dim {
            size: 3
          }
        }
        shape {
          dim {
            size: 224
          }
          dim {
            size: 224
          }
          dim {
            size: 3
          }
        }
      }
    }
  }
}
node {
  name: "distort_image/random_flip_left_right/Switch_1"
  op: "Switch"
  input: "distort_image/random_flip_left_right/control_dependency"
  input: "distort_image/random_flip_left_right/pred_id"
  device: "/device:CPU:0"
  attr {
    key: "T"
    value {
      type: DT_FLOAT
    }
  }
  attr {
    key: "_class"
    value {
      list {
        s: "loc:@distort_image/Merge"
      }
    }
  }
  attr {
    key: "_output_shapes"
    value {
      list {
        shape {
          dim {
            size: 224
          }
          dim {
            size: 224
          }
          dim {
            size: 3
          }
        }
        shape {
          dim {
            size: 224
          }
          dim {
            size: 224
          }
          dim {
            size: 3
          }
        }
      }
    }
  }
}
node {
  name: "distort_image/random_flip_left_right/Merge"
  op: "Merge"
  input: "distort_image/random_flip_left_right/Switch_1"
  input: "distort_image/random_flip_left_right/ReverseV2"
  device: "/device:CPU:0"
  attr {
    key: "N"
    value {
      i: 2
    }
  }
  attr {
    key: "T"
    value {
      type: DT_FLOAT
    }
  }
  attr {
    key: "_output_shapes"
    value {
      list {
        shape {
          dim {
            size: 224
          }
          dim {
            size: 224
          }
          dim {
            size: 3
          }
        }
        shape {
        }
      }
    }
  }
}
node {
  name: "distort_image/random_uniform_1/shape"
  op: "Const"
  device: "/device:CPU:0"
  attr {
    key: "_output_shapes"
    value {
      list {
        shape {
          dim {
          }
        }
      }
    }
  }
  attr {
    key: "dtype"
    value {
      type: DT_INT32
    }
  }
  attr {
    key: "value"
    value {
      tensor {
        dtype: DT_INT32
        tensor_shape {
          dim {
          }
        }
      }
    }
  }
}
node {
  name: "distort_image/random_uniform_1/min"
  op: "Const"
  device: "/device:CPU:0"
  attr {
    key: "_output_shapes"
    value {
      list {
        shape {
        }
      }
    }
  }
  attr {
    key: "dtype"
    value {
      type: DT_INT32
    }
  }
  attr {
    key: "value"
    value {
      tensor {
        dtype: DT_INT32
        tensor_shape {
        }
        int_val: 0
      }
    }
  }
}
node {
  name: "distort_image/random_uniform_1/max"
  op: "Const"
  device: "/device:CPU:0"
  attr {
    key: "_output_shapes"
    value {
      list {
        shape {
        }
      }
    }
  }
  attr {
    key: "dtype"
    value {
      type: DT_INT32
    }
  }
  attr {
    key: "value"
    value {
      tensor {
        dtype: DT_INT32
        tensor_shape {
        }
        int_val: 1
      }
    }
  }
}
node {
  name: "distort_image/random_uniform_1"
  op: "RandomUniformInt"
  input: "distort_image/random_uniform_1/shape"
  input: "distort_image/random_uniform_1/min"
  input: "distort_image/random_uniform_1/max"
  device: "/device:CPU:0"
  attr {
    key: "T"
    value {
      type: DT_INT32
    }
  }
  attr {
    key: "Tout"
    value {
      type: DT_INT32
    }
  }
  attr {
    key: "_output_shapes"
    value {
      list {
        shape {
        }
      }
    }
  }
  attr {
    key: "seed"
    value {
      i: 0
    }
  }
  attr {
    key: "seed2"
    value {
      i: 0
    }
  }
}
node {
  name: "distort_image/Equal_1/y"
  op: "Const"
  device: "/device:CPU:0"
  attr {
    key: "_output_shapes"
    value {
      list {
        shape {
        }
      }
    }
  }
  attr {
    key: "dtype"
    value {
      type: DT_INT32
    }
  }
  attr {
    key: "value"
    value {
      tensor {
        dtype: DT_INT32
        tensor_shape {
        }
        int_val: 0
      }
    }
  }
}
node {
  name: "distort_image/Equal_1"
  op: "Equal"
  input: "distort_image/random_uniform_1"
  input: "distort_image/Equal_1/y"
  device: "/device:CPU:0"
  attr {
    key: "T"
    value {
      type: DT_INT32
    }
  }
  attr {
    key: "_output_shapes"
    value {
      list {
        shape {
        }
      }
    }
  }
}
node {
  name: "distort_image/Switch_1"
  op: "Switch"
  input: "distort_image/random_flip_left_right/Merge"
  input: "distort_image/Equal_1"
  device: "/device:CPU:0"
  attr {
    key: "T"
    value {
      type: DT_FLOAT
    }
  }
  attr {
    key: "_output_shapes"
    value {
      list {
        shape {
          dim {
            size: 224
          }
          dim {
            size: 224
          }
          dim {
            size: 3
          }
        }
        shape {
          dim {
            size: 224
          }
          dim {
            size: 224
          }
          dim {
            size: 3
          }
        }
      }
    }
  }
}
node {
  name: "distort_image/distort_color/random_uniform/shape"
  op: "Const"
  device: "/device:CPU:0"
  attr {
    key: "_output_shapes"
    value {
      list {
        shape {
          dim {
          }
        }
      }
    }
  }
  attr {
    key: "dtype"
    value {
      type: DT_INT32
    }
  }
  attr {
    key: "value"
    value {
      tensor {
        dtype: DT_INT32
        tensor_shape {
          dim {
          }
        }
      }
    }
  }
}
node {
  name: "distort_image/distort_color/random_uniform/min"
  op: "Const"
  device: "/device:CPU:0"
  attr {
    key: "_output_shapes"
    value {
      list {
        shape {
        }
      }
    }
  }
  attr {
    key: "dtype"
    value {
      type: DT_FLOAT
    }
  }
  attr {
    key: "value"
    value {
      tensor {
        dtype: DT_FLOAT
        tensor_shape {
        }
        float_val: -0.1254902035
      }
    }
  }
}
node {
  name: "distort_image/distort_color/random_uniform/max"
  op: "Const"
  device: "/device:CPU:0"
  attr {
    key: "_output_shapes"
    value {
      list {
        shape {
        }
      }
    }
  }
  attr {
    key: "dtype"
    value {
      type: DT_FLOAT
    }
  }
  attr {
    key: "value"
    value {
      tensor {
        dtype: DT_FLOAT
        tensor_shape {
        }
        float_val: 0.1254902035
      }
    }
  }
}
node {
  name: "distort_image/distort_color/random_uniform/RandomUniform"
  op: "RandomUniform"
  input: "distort_image/distort_color/random_uniform/shape"
  device: "/device:CPU:0"
  attr {
    key: "T"
    value {
      type: DT_INT32
    }
  }
  attr {
    key: "_output_shapes"
    value {
      list {
        shape {
        }
      }
    }
  }
  attr {
    key: "dtype"
    value {
      type: DT_FLOAT
    }
  }
  attr {
    key: "seed"
    value {
      i: 0
    }
  }
  attr {
    key: "seed2"
    value {
      i: 0
    }
  }
}
node {
  name: "distort_image/distort_color/random_uniform/sub"
  op: "Sub"
  input: "distort_image/distort_color/random_uniform/max"
  input: "distort_image/distort_color/random_uniform/min"
  device: "/device:CPU:0"
  attr {
    key: "T"
    value {
      type: DT_FLOAT
    }
  }
  attr {
    key: "_output_shapes"
    value {
      list {
        shape {
        }
      }
    }
  }
}
node {
  name: "distort_image/distort_color/random_uniform/mul"
  op: "Mul"
  input: "distort_image/distort_color/random_uniform/RandomUniform"
  input: "distort_image/distort_color/random_uniform/sub"
  device: "/device:CPU:0"
  attr {
    key: "T"
    value {
      type: DT_FLOAT
    }
  }
  attr {
    key: "_output_shapes"
    value {
      list {
        shape {
        }
      }
    }
  }
}
node {
  name: "distort_image/distort_color/random_uniform"
  op: "Add"
  input: "distort_image/distort_color/random_uniform/mul"
  input: "distort_image/distort_color/random_uniform/min"
  device: "/device:CPU:0"
  attr {
    key: "T"
    value {
      type: DT_FLOAT
    }
  }
  attr {
    key: "_output_shapes"
    value {
      list {
        shape {
        }
      }
    }
  }
}
node {
  name: "distort_image/distort_color/adjust_brightness/Identity"
  op: "Identity"
  input: "distort_image/Switch_1:1"
  device: "/device:CPU:0"
  attr {
    key: "T"
    value {
      type: DT_FLOAT
    }
  }
  attr {
    key: "_output_shapes"
    value {
      list {
        shape {
          dim {
            size: 224
          }
          dim {
            size: 224
          }
          dim {
            size: 3
          }
        }
      }
    }
  }
}
node {
  name: "distort_image/distort_color/adjust_brightness"
  op: "Add"
  input: "distort_image/distort_color/adjust_brightness/Identity"
  input: "distort_image/distort_color/random_uniform"
  device: "/device:CPU:0"
  attr {
    key: "T"
    value {
      type: DT_FLOAT
    }
  }
  attr {
    key: "_output_shapes"
    value {
      list {
        shape {
          dim {
            size: 224
          }
          dim {
            size: 224
          }
          dim {
            size: 3
          }
        }
      }
    }
  }
}
node {
  name: "distort_image/distort_color/adjust_brightness/Identity_1"
  op: "Identity"
  input: "distort_image/distort_color/adjust_brightness"
  device: "/device:CPU:0"
  attr {
    key: "T"
    value {
      type: DT_FLOAT
    }
  }
  attr {
    key: "_output_shapes"
    value {
      list {
        shape {
          dim {
            size: 224
          }
          dim {
            size: 224
          }
          dim {
            size: 3
          }
        }
      }
    }
  }
}
node {
  name: "distort_image/distort_color/random_uniform_1/shape"
  op: "Const"
  device: "/device:CPU:0"
  attr {
    key: "_output_shapes"
    value {
      list {
        shape {
          dim {
          }
        }
      }
    }
  }
  attr {
    key: "dtype"
    value {
      type: DT_INT32
    }
  }
  attr {
    key: "value"
    value {
      tensor {
        dtype: DT_INT32
        tensor_shape {
          dim {
          }
        }
      }
    }
  }
}
node {
  name: "distort_image/distort_color/random_uniform_1/min"
  op: "Const"
  device: "/device:CPU:0"
  attr {
    key: "_output_shapes"
    value {
      list {
        shape {
        }
      }
    }
  }
  attr {
    key: "dtype"
    value {
      type: DT_FLOAT
    }
  }
  attr {
    key: "value"
    value {
      tensor {
        dtype: DT_FLOAT
        tensor_shape {
        }
        float_val: 0.5
      }
    }
  }
}
node {
  name: "distort_image/distort_color/random_uniform_1/max"
  op: "Const"
  device: "/device:CPU:0"
  attr {
    key: "_output_shapes"
    value {
      list {
        shape {
        }
      }
    }
  }
  attr {
    key: "dtype"
    value {
      type: DT_FLOAT
    }
  }
  attr {
    key: "value"
    value {
      tensor {
        dtype: DT_FLOAT
        tensor_shape {
        }
        float_val: 1.5
      }
    }
  }
}
node {
  name: "distort_image/distort_color/random_uniform_1/RandomUniform"
  op: "RandomUniform"
  input: "distort_image/distort_color/random_uniform_1/shape"
  device: "/device:CPU:0"
  attr {
    key: "T"
    value {
      type: DT_INT32
    }
  }
  attr {
    key: "_output_shapes"
    value {
      list {
        shape {
        }
      }
    }
  }
  attr {
    key: "dtype"
    value {
      type: DT_FLOAT
    }
  }
  attr {
    key: "seed"
    value {
      i: 0
    }
  }
  attr {
    key: "seed2"
    value {
      i: 0
    }
  }
}
node {
  name: "distort_image/distort_color/random_uniform_1/sub"
  op: "Sub"
  input: "distort_image/distort_color/random_uniform_1/max"
  input: "distort_image/distort_color/random_uniform_1/min"
  device: "/device:CPU:0"
  attr {
    key: "T"
    value {
      type: DT_FLOAT
    }
  }
  attr {
    key: "_output_shapes"
    value {
      list {
        shape {
        }
      }
    }
  }
}
node {
  name: "distort_image/distort_color/random_uniform_1/mul"
  op: "Mul"
  input: "distort_image/distort_color/random_uniform_1/RandomUniform"
  input: "distort_image/distort_color/random_uniform_1/sub"
  device: "/device:CPU:0"
  attr {
    key: "T"
    value {
      type: DT_FLOAT
    }
  }
  attr {
    key: "_output_shapes"
    value {
      list {
        shape {
        }
      }
    }
  }
}
node {
  name: "distort_image/distort_color/random_uniform_1"
  op: "Add"
  input: "distort_image/distort_color/random_uniform_1/mul"
  input: "distort_image/distort_color/random_uniform_1/min"
  device: "/device:CPU:0"
  attr {
    key: "T"
    value {
      type: DT_FLOAT
    }
  }
  attr {
    key: "_output_shapes"
    value {
      list {
        shape {
        }
      }
    }
  }
}
node {
  name: "distort_image/distort_color/adjust_saturation/Identity"
  op: "Identity"
  input: "distort_image/distort_color/adjust_brightness/Identity_1"
  device: "/device:CPU:0"
  attr {
    key: "T"
    value {
      type: DT_FLOAT
    }
  }
  attr {
    key: "_output_shapes"
    value {
      list {
        shape {
          dim {
            size: 224
          }
          dim {
            size: 224
          }
          dim {
            size: 3
          }
        }
      }
    }
  }
}
node {
  name: "distort_image/distort_color/adjust_saturation/AdjustSaturation"
  op: "AdjustSaturation"
  input: "distort_image/distort_color/adjust_saturation/Identity"
  input: "distort_image/distort_color/random_uniform_1"
  device: "/device:CPU:0"
  attr {
    key: "_output_shapes"
    value {
      list {
        shape {
          dim {
            size: 224
          }
          dim {
            size: 224
          }
          dim {
            size: 3
          }
        }
      }
    }
  }
}
node {
  name: "distort_image/distort_color/adjust_saturation/Identity_1"
  op: "Identity"
  input: "distort_image/distort_color/adjust_saturation/AdjustSaturation"
  device: "/device:CPU:0"
  attr {
    key: "T"
    value {
      type: DT_FLOAT
    }
  }
  attr {
    key: "_output_shapes"
    value {
      list {
        shape {
          dim {
            size: 224
          }
          dim {
            size: 224
          }
          dim {
            size: 3
          }
        }
      }
    }
  }
}
node {
  name: "distort_image/distort_color/clip_by_value/Minimum/y"
  op: "Const"
  device: "/device:CPU:0"
  attr {
    key: "_output_shapes"
    value {
      list {
        shape {
        }
      }
    }
  }
  attr {
    key: "dtype"
    value {
      type: DT_FLOAT
    }
  }
  attr {
    key: "value"
    value {
      tensor {
        dtype: DT_FLOAT
        tensor_shape {
        }
        float_val: 1.0
      }
    }
  }
}
node {
  name: "distort_image/distort_color/clip_by_value/Minimum"
  op: "Minimum"
  input: "distort_image/distort_color/adjust_saturation/Identity_1"
  input: "distort_image/distort_color/clip_by_value/Minimum/y"
  device: "/device:CPU:0"
  attr {
    key: "T"
    value {
      type: DT_FLOAT
    }
  }
  attr {
    key: "_output_shapes"
    value {
      list {
        shape {
          dim {
            size: 224
          }
          dim {
            size: 224
          }
          dim {
            size: 3
          }
        }
      }
    }
  }
}
node {
  name: "distort_image/distort_color/clip_by_value/y"
  op: "Const"
  device: "/device:CPU:0"
  attr {
    key: "_output_shapes"
    value {
      list {
        shape {
        }
      }
    }
  }
  attr {
    key: "dtype"
    value {
      type: DT_FLOAT
    }
  }
  attr {
    key: "value"
    value {
      tensor {
        dtype: DT_FLOAT
        tensor_shape {
        }
        float_val: 0.0
      }
    }
  }
}
node {
  name: "distort_image/distort_color/clip_by_value"
  op: "Maximum"
  input: "distort_image/distort_color/clip_by_value/Minimum"
  input: "distort_image/distort_color/clip_by_value/y"
  device: "/device:CPU:0"
  attr {
    key: "T"
    value {
      type: DT_FLOAT
    }
  }
  attr {
    key: "_output_shapes"
    value {
      list {
        shape {
          dim {
            size: 224
          }
          dim {
            size: 224
          }
          dim {
            size: 3
          }
        }
      }
    }
  }
}
node {
  name: "distort_image/Merge_1"
  op: "Merge"
  input: "distort_image/distort_color/clip_by_value"
  device: "/device:CPU:0"
  attr {
    key: "N"
    value {
      i: 1
    }
  }
  attr {
    key: "T"
    value {
      type: DT_FLOAT
    }
  }
  attr {
    key: "_output_shapes"
    value {
      list {
        shape {
          dim {
            size: 224
          }
          dim {
            size: 224
          }
          dim {
            size: 3
          }
        }
        shape {
        }
      }
    }
  }
}
node {
  name: "distort_image/ExpandDims_3/dim"
  op: "Const"
  device: "/device:CPU:0"
  attr {
    key: "_output_shapes"
    value {
      list {
        shape {
        }
      }
    }
  }
  attr {
    key: "dtype"
    value {
      type: DT_INT32
    }
  }
  attr {
    key: "value"
    value {
      tensor {
        dtype: DT_INT32
        tensor_shape {
        }
        int_val: 0
      }
    }
  }
}
node {
  name: "distort_image/ExpandDims_3"
  op: "ExpandDims"
  input: "distort_image/Merge_1"
  input: "distort_image/ExpandDims_3/dim"
  device: "/device:CPU:0"
  attr {
    key: "T"
    value {
      type: DT_FLOAT
    }
  }
  attr {
    key: "Tdim"
    value {
      type: DT_INT32
    }
  }
  attr {
    key: "_output_shapes"
    value {
      list {
        shape {
          dim {
            size: 1
          }
          dim {
            size: 224
          }
          dim {
            size: 224
          }
          dim {
            size: 3
          }
        }
      }
    }
  }
}
node {
  name: "distort_image/final_distorted_image/tag"
  op: "Const"
  device: "/device:CPU:0"
  attr {
    key: "_output_shapes"
    value {
      list {
        shape {
        }
      }
    }
  }
  attr {
    key: "dtype"
    value {
      type: DT_STRING
    }
  }
  attr {
    key: "value"
    value {
      tensor {
        dtype: DT_STRING
        tensor_shape {
        }
        string_val: "distort_image/final_distorted_image"
      }
    }
  }
}
node {
  name: "distort_image/final_distorted_image"
  op: "ImageSummary"
  input: "distort_image/final_distorted_image/tag"
  input: "distort_image/ExpandDims_3"
  device: "/device:CPU:0"
  attr {
    key: "T"
    value {
      type: DT_FLOAT
    }
  }
  attr {
    key: "_output_shapes"
    value {
      list {
        shape {
        }
      }
    }
  }
  attr {
    key: "bad_color"
    value {
      tensor {
        dtype: DT_UINT8
        tensor_shape {
          dim {
            size: 4
          }
        }
        int_val: 255
        int_val: 0
        int_val: 0
        int_val: 255
      }
    }
  }
  attr {
    key: "max_images"
    value {
      i: 3
    }
  }
}
node {
  name: "distort_image/Sub/y"
  op: "Const"
  device: "/device:CPU:0"
  attr {
    key: "_output_shapes"
    value {
      list {
        shape {
        }
      }
    }
  }
  attr {
    key: "dtype"
    value {
      type: DT_FLOAT
    }
  }
  attr {
    key: "value"
    value {
      tensor {
        dtype: DT_FLOAT
        tensor_shape {
        }
        float_val: 0.5
      }
    }
  }
}
node {
  name: "distort_image/Sub"
  op: "Sub"
  input: "distort_image/Merge_1"
  input: "distort_image/Sub/y"
  device: "/device:CPU:0"
  attr {
    key: "T"
    value {
      type: DT_FLOAT
    }
  }
  attr {
    key: "_output_shapes"
    value {
      list {
        shape {
          dim {
            size: 224
          }
          dim {
            size: 224
          }
          dim {
            size: 3
          }
        }
      }
    }
  }
}
node {
  name: "distort_image/Mul/y"
  op: "Const"
  device: "/device:CPU:0"
  attr {
    key: "_output_shapes"
    value {
      list {
        shape {
        }
      }
    }
  }
  attr {
    key: "dtype"
    value {
      type: DT_FLOAT
    }
  }
  attr {
    key: "value"
    value {
      tensor {
        dtype: DT_FLOAT
        tensor_shape {
        }
        float_val: 2.0
      }
    }
  }
}
node {
  name: "distort_image/Mul"
  op: "Mul"
  input: "distort_image/Sub"
  input: "distort_image/Mul/y"
  device: "/device:CPU:0"
  attr {
    key: "T"
    value {
      type: DT_FLOAT
    }
  }
  attr {
    key: "_output_shapes"
    value {
      list {
        shape {
          dim {
            size: 224
          }
          dim {
            size: 224
          }
          dim {
            size: 3
          }
        }
      }
    }
  }
}
node {
  name: "batch/Const"
  op: "Const"
  device: "/device:CPU:0"
  attr {
    key: "_output_shapes"
    value {
      list {
        shape {
        }
      }
    }
  }
  attr {
    key: "dtype"
    value {
      type: DT_BOOL
    }
  }
  attr {
    key: "value"
    value {
      tensor {
        dtype: DT_BOOL
        tensor_shape {
        }
        bool_val: true
      }
    }
  }
}
node {
  name: "batch/fifo_queue"
  op: "FIFOQueueV2"
  device: "/device:CPU:0"
  attr {
    key: "_output_shapes"
    value {
      list {
        shape {
        }
      }
    }
  }
  attr {
    key: "capacity"
    value {
      i: 160
    }
  }
  attr {
    key: "component_types"
    value {
      list {
        type: DT_FLOAT
        type: DT_INT64
      }
    }
  }
  attr {
    key: "container"
    value {
      s: ""
    }
  }
  attr {
    key: "shapes"
    value {
      list {
        shape {
          dim {
            size: 224
          }
          dim {
            size: 224
          }
          dim {
            size: 3
          }
        }
        shape {
        }
      }
    }
  }
  attr {
    key: "shared_name"
    value {
      s: ""
    }
  }
}
node {
  name: "batch/fifo_queue_enqueue"
  op: "QueueEnqueueV2"
  input: "batch/fifo_queue"
  input: "distort_image/Mul"
  input: "sub"
  device: "/device:CPU:0"
  attr {
    key: "Tcomponents"
    value {
      list {
        type: DT_FLOAT
        type: DT_INT64
      }
    }
  }
  attr {
    key: "timeout_ms"
    value {
      i: -1
    }
  }
}
node {
  name: "batch/fifo_queue_Close"
  op: "QueueCloseV2"
  input: "batch/fifo_queue"
  device: "/device:CPU:0"
  attr {
    key: "cancel_pending_enqueues"
    value {
      b: false
    }
  }
}
node {
  name: "batch/fifo_queue_Close_1"
  op: "QueueCloseV2"
  input: "batch/fifo_queue"
  device: "/device:CPU:0"
  attr {
    key: "cancel_pending_enqueues"
    value {
      b: true
    }
  }
}
node {
  name: "batch/fifo_queue_Size"
  op: "QueueSizeV2"
  input: "batch/fifo_queue"
  device: "/device:CPU:0"
  attr {
    key: "_output_shapes"
    value {
      list {
        shape {
        }
      }
    }
  }
}
node {
  name: "batch/ToFloat"
  op: "Cast"
  input: "batch/fifo_queue_Size"
  device: "/device:CPU:0"
  attr {
    key: "DstT"
    value {
      type: DT_FLOAT
    }
  }
  attr {
    key: "SrcT"
    value {
      type: DT_INT32
    }
  }
  attr {
    key: "Truncate"
    value {
      b: false
    }
  }
  attr {
    key: "_output_shapes"
    value {
      list {
        shape {
        }
      }
    }
  }
}
node {
  name: "batch/mul/y"
  op: "Const"
  device: "/device:CPU:0"
  attr {
    key: "_output_shapes"
    value {
      list {
        shape {
        }
      }
    }
  }
  attr {
    key: "dtype"
    value {
      type: DT_FLOAT
    }
  }
  attr {
    key: "value"
    value {
      tensor {
        dtype: DT_FLOAT
        tensor_shape {
        }
        float_val: 0.00625000009313
      }
    }
  }
}
node {
  name: "batch/mul"
  op: "Mul"
  input: "batch/ToFloat"
  input: "batch/mul/y"
  device: "/device:CPU:0"
  attr {
    key: "T"
    value {
      type: DT_FLOAT
    }
  }
  attr {
    key: "_output_shapes"
    value {
      list {
        shape {
        }
      }
    }
  }
}
node {
  name: "batch/fraction_of_160_full/tags"
  op: "Const"
  device: "/device:CPU:0"
  attr {
    key: "_output_shapes"
    value {
      list {
        shape {
        }
      }
    }
  }
  attr {
    key: "dtype"
    value {
      type: DT_STRING
    }
  }
  attr {
    key: "value"
    value {
      tensor {
        dtype: DT_STRING
        tensor_shape {
        }
        string_val: "batch/fraction_of_160_full"
      }
    }
  }
}
node {
  name: "batch/fraction_of_160_full"
  op: "ScalarSummary"
  input: "batch/fraction_of_160_full/tags"
  input: "batch/mul"
  device: "/device:CPU:0"
  attr {
    key: "T"
    value {
      type: DT_FLOAT
    }
  }
  attr {
    key: "_output_shapes"
    value {
      list {
        shape {
        }
      }
    }
  }
}
node {
  name: "batch/n"
  op: "Const"
  device: "/device:CPU:0"
  attr {
    key: "_output_shapes"
    value {
      list {
        shape {
        }
      }
    }
  }
  attr {
    key: "dtype"
    value {
      type: DT_INT32
    }
  }
  attr {
    key: "value"
    value {
      tensor {
        dtype: DT_INT32
        tensor_shape {
        }
        int_val: 32
      }
    }
  }
}
node {
  name: "batch"
  op: "QueueDequeueManyV2"
  input: "batch/fifo_queue"
  input: "batch/n"
  device: "/device:CPU:0"
  attr {
    key: "_output_shapes"
    value {
      list {
        shape {
          dim {
            size: 32
          }
          dim {
            size: 224
          }
          dim {
            size: 224
          }
          dim {
            size: 3
          }
        }
        shape {
          dim {
            size: 32
          }
        }
      }
    }
  }
  attr {
    key: "component_types"
    value {
      list {
        type: DT_FLOAT
        type: DT_INT64
      }
    }
  }
  attr {
    key: "timeout_ms"
    value {
      i: -1
    }
  }
}
node {
  name: "OneHotEncoding/one_hot/Const"
  op: "Const"
  device: "/device:CPU:0"
  attr {
    key: "_output_shapes"
    value {
      list {
        shape {
        }
      }
    }
  }
  attr {
    key: "dtype"
    value {
      type: DT_FLOAT
    }
  }
  attr {
    key: "value"
    value {
      tensor {
        dtype: DT_FLOAT
        tensor_shape {
        }
        float_val: 1.0
      }
    }
  }
}
node {
  name: "OneHotEncoding/one_hot/Const_1"
  op: "Const"
  device: "/device:CPU:0"
  attr {
    key: "_output_shapes"
    value {
      list {
        shape {
        }
      }
    }
  }
  attr {
    key: "dtype"
    value {
      type: DT_FLOAT
    }
  }
  attr {
    key: "value"
    value {
      tensor {
        dtype: DT_FLOAT
        tensor_shape {
        }
        float_val: 0.0
      }
    }
  }
}
node {
  name: "OneHotEncoding/one_hot/depth"
  op: "Const"
  device: "/device:CPU:0"
  attr {
    key: "_output_shapes"
    value {
      list {
        shape {
        }
      }
    }
  }
  attr {
    key: "dtype"
    value {
      type: DT_INT32
    }
  }
  attr {
    key: "value"
    value {
      tensor {
        dtype: DT_INT32
        tensor_shape {
        }
        int_val: 10
      }
    }
  }
}
node {
  name: "OneHotEncoding/one_hot/on_value"
  op: "Const"
  device: "/device:CPU:0"
  attr {
    key: "_output_shapes"
    value {
      list {
        shape {
        }
      }
    }
  }
  attr {
    key: "dtype"
    value {
      type: DT_FLOAT
    }
  }
  attr {
    key: "value"
    value {
      tensor {
        dtype: DT_FLOAT
        tensor_shape {
        }
        float_val: 1.0
      }
    }
  }
}
node {
  name: "OneHotEncoding/one_hot/off_value"
  op: "Const"
  device: "/device:CPU:0"
  attr {
    key: "_output_shapes"
    value {
      list {
        shape {
        }
      }
    }
  }
  attr {
    key: "dtype"
    value {
      type: DT_FLOAT
    }
  }
  attr {
    key: "value"
    value {
      tensor {
        dtype: DT_FLOAT
        tensor_shape {
        }
        float_val: 0.0
      }
    }
  }
}
node {
  name: "OneHotEncoding/one_hot"
  op: "OneHot"
  input: "batch:1"
  input: "OneHotEncoding/one_hot/depth"
  input: "OneHotEncoding/one_hot/on_value"
  input: "OneHotEncoding/one_hot/off_value"
  device: "/device:CPU:0"
  attr {
    key: "T"
    value {
      type: DT_FLOAT
    }
  }
  attr {
    key: "TI"
    value {
      type: DT_INT64
    }
  }
  attr {
    key: "_output_shapes"
    value {
      list {
        shape {
          dim {
            size: 32
          }
          dim {
            size: 10
          }
        }
      }
    }
  }
  attr {
    key: "axis"
    value {
      i: -1
    }
  }
}
node {
  name: "prefetch_queue/fifo_queue"
  op: "FIFOQueueV2"
  device: "/device:CPU:0"
  attr {
    key: "_output_shapes"
    value {
      list {
        shape {
        }
      }
    }
  }
  attr {
    key: "capacity"
    value {
      i: 2
    }
  }
  attr {
    key: "component_types"
    value {
      list {
        type: DT_FLOAT
        type: DT_FLOAT
      }
    }
  }
  attr {
    key: "container"
    value {
      s: ""
    }
  }
  attr {
    key: "shapes"
    value {
      list {
        shape {
          dim {
            size: 32
          }
          dim {
            size: 224
          }
          dim {
            size: 224
          }
          dim {
            size: 3
          }
        }
        shape {
          dim {
            size: 32
          }
          dim {
            size: 10
          }
        }
      }
    }
  }
  attr {
    key: "shared_name"
    value {
      s: ""
    }
  }
}
node {
  name: "prefetch_queue/fifo_queue_enqueue"
  op: "QueueEnqueueV2"
  input: "prefetch_queue/fifo_queue"
  input: "batch"
  input: "OneHotEncoding/one_hot"
  device: "/device:CPU:0"
  attr {
    key: "Tcomponents"
    value {
      list {
        type: DT_FLOAT
        type: DT_FLOAT
      }
    }
  }
  attr {
    key: "timeout_ms"
    value {
      i: -1
    }
  }
}
node {
  name: "prefetch_queue/fifo_queue_Close"
  op: "QueueCloseV2"
  input: "prefetch_queue/fifo_queue"
  device: "/device:CPU:0"
  attr {
    key: "cancel_pending_enqueues"
    value {
      b: false
    }
  }
}
node {
  name: "prefetch_queue/fifo_queue_Close_1"
  op: "QueueCloseV2"
  input: "prefetch_queue/fifo_queue"
  device: "/device:CPU:0"
  attr {
    key: "cancel_pending_enqueues"
    value {
      b: true
    }
  }
}
node {
  name: "prefetch_queue/fifo_queue_Size"
  op: "QueueSizeV2"
  input: "prefetch_queue/fifo_queue"
  device: "/device:CPU:0"
  attr {
    key: "_output_shapes"
    value {
      list {
        shape {
        }
      }
    }
  }
}
node {
  name: "prefetch_queue/ToFloat"
  op: "Cast"
  input: "prefetch_queue/fifo_queue_Size"
  device: "/device:CPU:0"
  attr {
    key: "DstT"
    value {
      type: DT_FLOAT
    }
  }
  attr {
    key: "SrcT"
    value {
      type: DT_INT32
    }
  }
  attr {
    key: "Truncate"
    value {
      b: false
    }
  }
  attr {
    key: "_output_shapes"
    value {
      list {
        shape {
        }
      }
    }
  }
}
node {
  name: "prefetch_queue/mul/y"
  op: "Const"
  device: "/device:CPU:0"
  attr {
    key: "_output_shapes"
    value {
      list {
        shape {
        }
      }
    }
  }
  attr {
    key: "dtype"
    value {
      type: DT_FLOAT
    }
  }
  attr {
    key: "value"
    value {
      tensor {
        dtype: DT_FLOAT
        tensor_shape {
        }
        float_val: 0.5
      }
    }
  }
}
node {
  name: "prefetch_queue/mul"
  op: "Mul"
  input: "prefetch_queue/ToFloat"
  input: "prefetch_queue/mul/y"
  device: "/device:CPU:0"
  attr {
    key: "T"
    value {
      type: DT_FLOAT
    }
  }
  attr {
    key: "_output_shapes"
    value {
      list {
        shape {
        }
      }
    }
  }
}
node {
  name: "prefetch_queue/fraction_of_2_full/tags"
  op: "Const"
  device: "/device:CPU:0"
  attr {
    key: "_output_shapes"
    value {
      list {
        shape {
        }
      }
    }
  }
  attr {
    key: "dtype"
    value {
      type: DT_STRING
    }
  }
  attr {
    key: "value"
    value {
      tensor {
        dtype: DT_STRING
        tensor_shape {
        }
        string_val: "prefetch_queue/fraction_of_2_full"
      }
    }
  }
}
node {
  name: "prefetch_queue/fraction_of_2_full"
  op: "ScalarSummary"
  input: "prefetch_queue/fraction_of_2_full/tags"
  input: "prefetch_queue/mul"
  device: "/device:CPU:0"
  attr {
    key: "T"
    value {
      type: DT_FLOAT
    }
  }
  attr {
    key: "_output_shapes"
    value {
      list {
        shape {
        }
      }
    }
  }
}
node {
  name: "fifo_queue_Dequeue"
  op: "QueueDequeueV2"
  input: "prefetch_queue/fifo_queue"
  device: "/device:CPU:0"
  attr {
    key: "_output_shapes"
    value {
      list {
        shape {
          dim {
            size: 32
          }
          dim {
            size: 224
          }
          dim {
            size: 224
          }
          dim {
            size: 3
          }
        }
        shape {
          dim {
            size: 32
          }
          dim {
            size: 10
          }
        }
      }
    }
  }
  attr {
    key: "component_types"
    value {
      list {
        type: DT_FLOAT
        type: DT_FLOAT
      }
    }
  }
  attr {
    key: "timeout_ms"
    value {
      i: -1
    }
  }
}
node {
  name: "MobilenetV2/input"
  op: "Identity"
  input: "fifo_queue_Dequeue"
  device: "/device:CPU:0"
  attr {
    key: "T"
    value {
      type: DT_FLOAT
    }
  }
  attr {
    key: "_output_shapes"
    value {
      list {
        shape {
          dim {
            size: 32
          }
          dim {
            size: 224
          }
          dim {
            size: 224
          }
          dim {
            size: 3
          }
        }
      }
    }
  }
}
node {
  name: "MobilenetV2/Conv/weights/Initializer/truncated_normal/shape"
  op: "Const"
  attr {
    key: "_class"
    value {
      list {
        s: "loc:@MobilenetV2/Conv/weights"
      }
    }
  }
  attr {
    key: "_output_shapes"
    value {
      list {
        shape {
          dim {
            size: 4
          }
        }
      }
    }
  }
  attr {
    key: "dtype"
    value {
      type: DT_INT32
    }
  }
  attr {
    key: "value"
    value {
      tensor {
        dtype: DT_INT32
        tensor_shape {
          dim {
            size: 4
          }
        }
        tensor_content: "\003\000\000\000\003\000\000\000\003\000\000\0000\000\000\000"
      }
    }
  }
}
node {
  name: "MobilenetV2/Conv/weights/Initializer/truncated_normal/mean"
  op: "Const"
  attr {
    key: "_class"
    value {
      list {
        s: "loc:@MobilenetV2/Conv/weights"
      }
    }
  }
  attr {
    key: "_output_shapes"
    value {
      list {
        shape {
        }
      }
    }
  }
  attr {
    key: "dtype"
    value {
      type: DT_FLOAT
    }
  }
  attr {
    key: "value"
    value {
      tensor {
        dtype: DT_FLOAT
        tensor_shape {
        }
        float_val: 0.0
      }
    }
  }
}
node {
  name: "MobilenetV2/Conv/weights/Initializer/truncated_normal/stddev"
  op: "Const"
  attr {
    key: "_class"
    value {
      list {
        s: "loc:@MobilenetV2/Conv/weights"
      }
    }
  }
  attr {
    key: "_output_shapes"
    value {
      list {
        shape {
        }
      }
    }
  }
  attr {
    key: "dtype"
    value {
      type: DT_FLOAT
    }
  }
  attr {
    key: "value"
    value {
      tensor {
        dtype: DT_FLOAT
        tensor_shape {
        }
        float_val: 0.0900000035763
      }
    }
  }
}
node {
  name: "MobilenetV2/Conv/weights/Initializer/truncated_normal/TruncatedNormal"
  op: "TruncatedNormal"
  input: "MobilenetV2/Conv/weights/Initializer/truncated_normal/shape"
  attr {
    key: "T"
    value {
      type: DT_INT32
    }
  }
  attr {
    key: "_class"
    value {
      list {
        s: "loc:@MobilenetV2/Conv/weights"
      }
    }
  }
  attr {
    key: "_output_shapes"
    value {
      list {
        shape {
          dim {
            size: 3
          }
          dim {
            size: 3
          }
          dim {
            size: 3
          }
          dim {
            size: 48
          }
        }
      }
    }
  }
  attr {
    key: "dtype"
    value {
      type: DT_FLOAT
    }
  }
  attr {
    key: "seed"
    value {
      i: 0
    }
  }
  attr {
    key: "seed2"
    value {
      i: 0
    }
  }
}
node {
  name: "MobilenetV2/Conv/weights/Initializer/truncated_normal/mul"
  op: "Mul"
  input: "MobilenetV2/Conv/weights/Initializer/truncated_normal/TruncatedNormal"
  input: "MobilenetV2/Conv/weights/Initializer/truncated_normal/stddev"
  attr {
    key: "T"
    value {
      type: DT_FLOAT
    }
  }
  attr {
    key: "_class"
    value {
      list {
        s: "loc:@MobilenetV2/Conv/weights"
      }
    }
  }
  attr {
    key: "_output_shapes"
    value {
      list {
        shape {
          dim {
            size: 3
          }
          dim {
            size: 3
          }
          dim {
            size: 3
          }
          dim {
            size: 48
          }
        }
      }
    }
  }
}
node {
  name: "MobilenetV2/Conv/weights/Initializer/truncated_normal"
  op: "Add"
  input: "MobilenetV2/Conv/weights/Initializer/truncated_normal/mul"
  input: "MobilenetV2/Conv/weights/Initializer/truncated_normal/mean"
  attr {
    key: "T"
    value {
      type: DT_FLOAT
    }
  }
  attr {
    key: "_class"
    value {
      list {
        s: "loc:@MobilenetV2/Conv/weights"
      }
    }
  }
  attr {
…
  input: "init_ops/report_uninitialized_variables/IsVariableInitialized_134"
  input: "init_ops/report_uninitialized_variables/IsVariableInitialized_135"
  input: "init_ops/report_uninitialized_variables/IsVariableInitialized_136"
  input: "init_ops/report_uninitialized_variables/IsVariableInitialized_137"
  input: "init_ops/report_uninitialized_variables/IsVariableInitialized_138"
  input: "init_ops/report_uninitialized_variables/IsVariableInitialized_139"
  input: "init_ops/report_uninitialized_variables/IsVariableInitialized_140"
  input: "init_ops/report_uninitialized_variables/IsVariableInitialized_141"
  input: "init_ops/report_uninitialized_variables/IsVariableInitialized_142"
  input: "init_ops/report_uninitialized_variables/IsVariableInitialized_143"
  input: "init_ops/report_uninitialized_variables/IsVariableInitialized_144"
  input: "init_ops/report_uninitialized_variables/IsVariableInitialized_145"
  input: "init_ops/report_uninitialized_variables/IsVariableInitialized_146"
  input: "init_ops/report_uninitialized_variables/IsVariableInitialized_147"
  input: "init_ops/report_uninitialized_variables/IsVariableInitialized_148"
  input: "init_ops/report_uninitialized_variables/IsVariableInitialized_149"
  input: "init_ops/report_uninitialized_variables/IsVariableInitialized_150"
  input: "init_ops/report_uninitialized_variables/IsVariableInitialized_151"
  input: "init_ops/report_uninitialized_variables/IsVariableInitialized_152"
  input: "init_ops/report_uninitialized_variables/IsVariableInitialized_153"
  input: "init_ops/report_uninitialized_variables/IsVariableInitialized_154"
  input: "init_ops/report_uninitialized_variables/IsVariableInitialized_155"
  input: "init_ops/report_uninitialized_variables/IsVariableInitialized_156"
  input: "init_ops/report_uninitialized_variables/IsVariableInitialized_157"
  input: "init_ops/report_uninitialized_variables/IsVariableInitialized_158"
  input: "init_ops/report_uninitialized_variables/IsVariableInitialized_159"
  input: "init_ops/report_uninitialized_variables/IsVariableInitialized_160"
  input: "init_ops/report_uninitialized_variables/IsVariableInitialized_161"
  input: "init_ops/report_uninitialized_variables/IsVariableInitialized_162"
  input: "init_ops/report_uninitialized_variables/IsVariableInitialized_163"
  input: "init_ops/report_uninitialized_variables/IsVariableInitialized_164"
  input: "init_ops/report_uninitialized_variables/IsVariableInitialized_165"
  input: "init_ops/report_uninitialized_variables/IsVariableInitialized_166"
  input: "init_ops/report_uninitialized_variables/IsVariableInitialized_167"
  input: "init_ops/report_uninitialized_variables/IsVariableInitialized_168"
  input: "init_ops/report_uninitialized_variables/IsVariableInitialized_169"
  input: "init_ops/report_uninitialized_variables/IsVariableInitialized_170"
  input: "init_ops/report_uninitialized_variables/IsVariableInitialized_171"
  input: "init_ops/report_uninitialized_variables/IsVariableInitialized_172"
  input: "init_ops/report_uninitialized_variables/IsVariableInitialized_173"
  input: "init_ops/report_uninitialized_variables/IsVariableInitialized_174"
  input: "init_ops/report_uninitialized_variables/IsVariableInitialized_175"
  input: "init_ops/report_uninitialized_variables/IsVariableInitialized_176"
  input: "init_ops/report_uninitialized_variables/IsVariableInitialized_177"
  input: "init_ops/report_uninitialized_variables/IsVariableInitialized_178"
  input: "init_ops/report_uninitialized_variables/IsVariableInitialized_179"
  input: "init_ops/report_uninitialized_variables/IsVariableInitialized_180"
  input: "init_ops/report_uninitialized_variables/IsVariableInitialized_181"
  input: "init_ops/report_uninitialized_variables/IsVariableInitialized_182"
  input: "init_ops/report_uninitialized_variables/IsVariableInitialized_183"
  input: "init_ops/report_uninitialized_variables/IsVariableInitialized_184"
  input: "init_ops/report_uninitialized_variables/IsVariableInitialized_185"
  input: "init_ops/report_uninitialized_variables/IsVariableInitialized_186"
  input: "init_ops/report_uninitialized_variables/IsVariableInitialized_187"
  input: "init_ops/report_uninitialized_variables/IsVariableInitialized_188"
  input: "init_ops/report_uninitialized_variables/IsVariableInitialized_189"
  input: "init_ops/report_uninitialized_variables/IsVariableInitialized_190"
  input: "init_ops/report_uninitialized_variables/IsVariableInitialized_191"
  input: "init_ops/report_uninitialized_variables/IsVariableInitialized_192"
  input: "init_ops/report_uninitialized_variables/IsVariableInitialized_193"
  input: "init_ops/report_uninitialized_variables/IsVariableInitialized_194"
  input: "init_ops/report_uninitialized_variables/IsVariableInitialized_195"
  input: "init_ops/report_uninitialized_variables/IsVariableInitialized_196"
  input: "init_ops/report_uninitialized_variables/IsVariableInitialized_197"
  input: "init_ops/report_uninitialized_variables/IsVariableInitialized_198"
  input: "init_ops/report_uninitialized_variables/IsVariableInitialized_199"
  input: "init_ops/report_uninitialized_variables/IsVariableInitialized_200"
  input: "init_ops/report_uninitialized_variables/IsVariableInitialized_201"
  input: "init_ops/report_uninitialized_variables/IsVariableInitialized_202"
  input: "init_ops/report_uninitialized_variables/IsVariableInitialized_203"
  input: "init_ops/report_uninitialized_variables/IsVariableInitialized_204"
  input: "init_ops/report_uninitialized_variables/IsVariableInitialized_205"
  input: "init_ops/report_uninitialized_variables/IsVariableInitialized_206"
  input: "init_ops/report_uninitialized_variables/IsVariableInitialized_207"
  input: "init_ops/report_uninitialized_variables/IsVariableInitialized_208"
  input: "init_ops/report_uninitialized_variables/IsVariableInitialized_209"
  input: "init_ops/report_uninitialized_variables/IsVariableInitialized_210"
  input: "init_ops/report_uninitialized_variables/IsVariableInitialized_211"
  input: "init_ops/report_uninitialized_variables/IsVariableInitialized_212"
  input: "init_ops/report_uninitialized_variables/IsVariableInitialized_213"
  input: "init_ops/report_uninitialized_variables/IsVariableInitialized_214"
  input: "init_ops/report_uninitialized_variables/IsVariableInitialized_215"
  input: "init_ops/report_uninitialized_variables/IsVariableInitialized_216"
  input: "init_ops/report_uninitialized_variables/IsVariableInitialized_217"
  input: "init_ops/report_uninitialized_variables/IsVariableInitialized_218"
  input: "init_ops/report_uninitialized_variables/IsVariableInitialized_219"
  input: "init_ops/report_uninitialized_variables/IsVariableInitialized_220"
  input: "init_ops/report_uninitialized_variables/IsVariableInitialized_221"
  input: "init_ops/report_uninitialized_variables/IsVariableInitialized_222"
  input: "init_ops/report_uninitialized_variables/IsVariableInitialized_223"
  input: "init_ops/report_uninitialized_variables/IsVariableInitialized_224"
  input: "init_ops/report_uninitialized_variables/IsVariableInitialized_225"
  input: "init_ops/report_uninitialized_variables/IsVariableInitialized_226"
  input: "init_ops/report_uninitialized_variables/IsVariableInitialized_227"
  input: "init_ops/report_uninitialized_variables/IsVariableInitialized_228"
  input: "init_ops/report_uninitialized_variables/IsVariableInitialized_229"
  input: "init_ops/report_uninitialized_variables/IsVariableInitialized_230"
  input: "init_ops/report_uninitialized_variables/IsVariableInitialized_231"
  input: "init_ops/report_uninitialized_variables/IsVariableInitialized_232"
  input: "init_ops/report_uninitialized_variables/IsVariableInitialized_233"
  input: "init_ops/report_uninitialized_variables/IsVariableInitialized_234"
  input: "init_ops/report_uninitialized_variables/IsVariableInitialized_235"
  input: "init_ops/report_uninitialized_variables/IsVariableInitialized_236"
  input: "init_ops/report_uninitialized_variables/IsVariableInitialized_237"
  input: "init_ops/report_uninitialized_variables/IsVariableInitialized_238"
  input: "init_ops/report_uninitialized_variables/IsVariableInitialized_239"
  input: "init_ops/report_uninitialized_variables/IsVariableInitialized_240"
  input: "init_ops/report_uninitialized_variables/IsVariableInitialized_241"
  input: "init_ops/report_uninitialized_variables/IsVariableInitialized_242"
  input: "init_ops/report_uninitialized_variables/IsVariableInitialized_243"
  input: "init_ops/report_uninitialized_variables/IsVariableInitialized_244"
  input: "init_ops/report_uninitialized_variables/IsVariableInitialized_245"
  input: "init_ops/report_uninitialized_variables/IsVariableInitialized_246"
  input: "init_ops/report_uninitialized_variables/IsVariableInitialized_247"
  input: "init_ops/report_uninitialized_variables/IsVariableInitialized_248"
  input: "init_ops/report_uninitialized_variables/IsVariableInitialized_249"
  input: "init_ops/report_uninitialized_variables/IsVariableInitialized_250"
  input: "init_ops/report_uninitialized_variables/IsVariableInitialized_251"
  input: "init_ops/report_uninitialized_variables/IsVariableInitialized_252"
  input: "init_ops/report_uninitialized_variables/IsVariableInitialized_253"
  input: "init_ops/report_uninitialized_variables/IsVariableInitialized_254"
  input: "init_ops/report_uninitialized_variables/IsVariableInitialized_255"
  input: "init_ops/report_uninitialized_variables/IsVariableInitialized_256"
  input: "init_ops/report_uninitialized_variables/IsVariableInitialized_257"
  input: "init_ops/report_uninitialized_variables/IsVariableInitialized_258"
  input: "init_ops/report_uninitialized_variables/IsVariableInitialized_259"
  input: "init_ops/report_uninitialized_variables/IsVariableInitialized_260"
  input: "init_ops/report_uninitialized_variables/IsVariableInitialized_261"
  input: "init_ops/report_uninitialized_variables/IsVariableInitialized_262"
  input: "init_ops/report_uninitialized_variables/IsVariableInitialized_263"
  input: "init_ops/report_uninitialized_variables/IsVariableInitialized_264"
  input: "init_ops/report_uninitialized_variables/IsVariableInitialized_265"
  input: "init_ops/report_uninitialized_variables/IsVariableInitialized_266"
  device: "/device:CPU:0"
  attr {
    key: "N"
    value {
      i: 267
    }
  }
  attr {
    key: "T"
    value {
      type: DT_BOOL
    }
  }
  attr {
    key: "_output_shapes"
    value {
      list {
        shape {
          dim {
            size: 267
          }
        }
      }
    }
  }
  attr {
    key: "axis"
    value {
      i: 0
    }
  }
}
node {
  name: "init_ops/report_uninitialized_variables/LogicalNot"
  op: "LogicalNot"
  input: "init_ops/report_uninitialized_variables/stack"
  device: "/device:CPU:0"
  attr {
    key: "_output_shapes"
    value {
      list {
        shape {
          dim {
            size: 267
          }
        }
      }
    }
  }
}
node {
  name: "init_ops/report_uninitialized_variables/Const"
  op: "Const"
  device: "/device:CPU:0"
  attr {
    key: "_output_shapes"
    value {
      list {
        shape {
          dim {
            size: 267
          }
        }
      }
    }
  }
  attr {
    key: "dtype"
    value {
      type: DT_STRING
    }
  }
  attr {
    key: "value"
    value {
      tensor {
        dtype: DT_STRING
        tensor_shape {
          dim {
            size: 267
          }
        }
        string_val: "global_step"
        string_val: "MobilenetV2/Conv/weights"
        string_val: "MobilenetV2/Conv/BatchNorm/gamma"
        string_val: "MobilenetV2/Conv/BatchNorm/beta"
        string_val: "MobilenetV2/Conv/BatchNorm/moving_mean"
        string_val: "MobilenetV2/Conv/BatchNorm/moving_variance"
        string_val: "MobilenetV2/expanded_conv/depthwise/depthwise_weights"
        string_val: "MobilenetV2/expanded_conv/depthwise/BatchNorm/gamma"
        string_val: "MobilenetV2/expanded_conv/depthwise/BatchNorm/beta"
        string_val: "MobilenetV2/expanded_conv/depthwise/BatchNorm/moving_mean"
        string_val: "MobilenetV2/expanded_conv/depthwise/BatchNorm/moving_variance"
        string_val: "MobilenetV2/expanded_conv/project/weights"
        string_val: "MobilenetV2/expanded_conv/project/BatchNorm/gamma"
        string_val: "MobilenetV2/expanded_conv/project/BatchNorm/beta"
        string_val: "MobilenetV2/expanded_conv/project/BatchNorm/moving_mean"
        string_val: "MobilenetV2/expanded_conv/project/BatchNorm/moving_variance"
        string_val: "MobilenetV2/expanded_conv_1/expand/weights"
        string_val: "MobilenetV2/expanded_conv_1/expand/BatchNorm/gamma"
        string_val: "MobilenetV2/expanded_conv_1/expand/BatchNorm/beta"
        string_val: "MobilenetV2/expanded_conv_1/expand/BatchNorm/moving_mean"
        string_val: "MobilenetV2/expanded_conv_1/expand/BatchNorm/moving_variance"
        string_val: "MobilenetV2/expanded_conv_1/depthwise/depthwise_weights"
        string_val: "MobilenetV2/expanded_conv_1/depthwise/BatchNorm/gamma"
        string_val: "MobilenetV2/expanded_conv_1/depthwise/BatchNorm/beta"
        string_val: "MobilenetV2/expanded_conv_1/depthwise/BatchNorm/moving_mean"
        string_val: "MobilenetV2/expanded_conv_1/depthwise/BatchNorm/moving_variance"
        string_val: "MobilenetV2/expanded_conv_1/project/weights"
        string_val: "MobilenetV2/expanded_conv_1/project/BatchNorm/gamma"
        string_val: "MobilenetV2/expanded_conv_1/project/BatchNorm/beta"
        string_val: "MobilenetV2/expanded_conv_1/project/BatchNorm/moving_mean"
        string_val: "MobilenetV2/expanded_conv_1/project/BatchNorm/moving_variance"
        string_val: "MobilenetV2/expanded_conv_2/expand/weights"
        string_val: "MobilenetV2/expanded_conv_2/expand/BatchNorm/gamma"
        string_val: "MobilenetV2/expanded_conv_2/expand/BatchNorm/beta"
        string_val: "MobilenetV2/expanded_conv_2/expand/BatchNorm/moving_mean"
        string_val: "MobilenetV2/expanded_conv_2/expand/BatchNorm/moving_variance"
        string_val: "MobilenetV2/expanded_conv_2/depthwise/depthwise_weights"
        string_val: "MobilenetV2/expanded_conv_2/depthwise/BatchNorm/gamma"
        string_val: "MobilenetV2/expanded_conv_2/depthwise/BatchNorm/beta"
        string_val: "MobilenetV2/expanded_conv_2/depthwise/BatchNorm/moving_mean"
        string_val: "MobilenetV2/expanded_conv_2/depthwise/BatchNorm/moving_variance"
        string_val: "MobilenetV2/expanded_conv_2/project/weights"
        string_val: "MobilenetV2/expanded_conv_2/project/BatchNorm/gamma"
        string_val: "MobilenetV2/expanded_conv_2/project/BatchNorm/beta"
        string_val: "MobilenetV2/expanded_conv_2/project/BatchNorm/moving_mean"
        string_val: "MobilenetV2/expanded_conv_2/project/BatchNorm/moving_variance"
        string_val: "MobilenetV2/expanded_conv_3/expand/weights"
        string_val: "MobilenetV2/expanded_conv_3/expand/BatchNorm/gamma"
        string_val: "MobilenetV2/expanded_conv_3/expand/BatchNorm/beta"
        string_val: "MobilenetV2/expanded_conv_3/expand/BatchNorm/moving_mean"
        string_val: "MobilenetV2/expanded_conv_3/expand/BatchNorm/moving_variance"
        string_val: "MobilenetV2/expanded_conv_3/depthwise/depthwise_weights"
        string_val: "MobilenetV2/expanded_conv_3/depthwise/BatchNorm/gamma"
        string_val: "MobilenetV2/expanded_conv_3/depthwise/BatchNorm/beta"
        string_val: "MobilenetV2/expanded_conv_3/depthwise/BatchNorm/moving_mean"
        string_val: "MobilenetV2/expanded_conv_3/depthwise/BatchNorm/moving_variance"
        string_val: "MobilenetV2/expanded_conv_3/project/weights"
        string_val: "MobilenetV2/expanded_conv_3/project/BatchNorm/gamma"
        string_val: "MobilenetV2/expanded_conv_3/project/BatchNorm/beta"
        string_val: "MobilenetV2/expanded_conv_3/project/BatchNorm/moving_mean"
        string_val: "MobilenetV2/expanded_conv_3/project/BatchNorm/moving_variance"
        string_val: "MobilenetV2/expanded_conv_4/expand/weights"
        string_val: "MobilenetV2/expanded_conv_4/expand/BatchNorm/gamma"
        string_val: "MobilenetV2/expanded_conv_4/expand/BatchNorm/beta"
        string_val: "MobilenetV2/expanded_conv_4/expand/BatchNorm/moving_mean"
        string_val: "MobilenetV2/expanded_conv_4/expand/BatchNorm/moving_variance"
        string_val: "MobilenetV2/expanded_conv_4/depthwise/depthwise_weights"
        string_val: "MobilenetV2/expanded_conv_4/depthwise/BatchNorm/gamma"
        string_val: "MobilenetV2/expanded_conv_4/depthwise/BatchNorm/beta"
        string_val: "MobilenetV2/expanded_conv_4/depthwise/BatchNorm/moving_mean"
        string_val: "MobilenetV2/expanded_conv_4/depthwise/BatchNorm/moving_variance"
        string_val: "MobilenetV2/expanded_conv_4/project/weights"
        string_val: "MobilenetV2/expanded_conv_4/project/BatchNorm/gamma"
        string_val: "MobilenetV2/expanded_conv_4/project/BatchNorm/beta"
        string_val: "MobilenetV2/expanded_conv_4/project/BatchNorm/moving_mean"
        string_val: "MobilenetV2/expanded_conv_4/project/BatchNorm/moving_variance"
        string_val: "MobilenetV2/expanded_conv_5/expand/weights"
        string_val: "MobilenetV2/expanded_conv_5/expand/BatchNorm/gamma"
        string_val: "MobilenetV2/expanded_conv_5/expand/BatchNorm/beta"
        string_val: "MobilenetV2/expanded_conv_5/expand/BatchNorm/moving_mean"
        string_val: "MobilenetV2/expanded_conv_5/expand/BatchNorm/moving_variance"
        string_val: "MobilenetV2/expanded_conv_5/depthwise/depthwise_weights"
        string_val: "MobilenetV2/expanded_conv_5/depthwise/BatchNorm/gamma"
        string_val: "MobilenetV2/expanded_conv_5/depthwise/BatchNorm/beta"
        string_val: "MobilenetV2/expanded_conv_5/depthwise/BatchNorm/moving_mean"
        string_val: "MobilenetV2/expanded_conv_5/depthwise/BatchNorm/moving_variance"
        string_val: "MobilenetV2/expanded_conv_5/project/weights"
        string_val: "MobilenetV2/expanded_conv_5/project/BatchNorm/gamma"
        string_val: "MobilenetV2/expanded_conv_5/project/BatchNorm/beta"
        string_val: "MobilenetV2/expanded_conv_5/project/BatchNorm/moving_mean"
        string_val: "MobilenetV2/expanded_conv_5/project/BatchNorm/moving_variance"
        string_val: "MobilenetV2/expanded_conv_6/expand/weights"
        string_val: "MobilenetV2/expanded_conv_6/expand/BatchNorm/gamma"
        string_val: "MobilenetV2/expanded_conv_6/expand/BatchNorm/beta"
        string_val: "MobilenetV2/expanded_conv_6/expand/BatchNorm/moving_mean"
        string_val: "MobilenetV2/expanded_conv_6/expand/BatchNorm/moving_variance"
        string_val: "MobilenetV2/expanded_conv_6/depthwise/depthwise_weights"
        string_val: "MobilenetV2/expanded_conv_6/depthwise/BatchNorm/gamma"
        string_val: "MobilenetV2/expanded_conv_6/depthwise/BatchNorm/beta"
        string_val: "MobilenetV2/expanded_conv_6/depthwise/BatchNorm/moving_mean"
        string_val: "MobilenetV2/expanded_conv_6/depthwise/BatchNorm/moving_variance"
        string_val: "MobilenetV2/expanded_conv_6/project/weights"
        string_val: "MobilenetV2/expanded_conv_6/project/BatchNorm/gamma"
        string_val: "MobilenetV2/expanded_conv_6/project/BatchNorm/beta"
        string_val: "MobilenetV2/expanded_conv_6/project/BatchNorm/moving_mean"
        string_val: "MobilenetV2/expanded_conv_6/project/BatchNorm/moving_variance"
        string_val: "MobilenetV2/expanded_conv_7/expand/weights"
        string_val: "MobilenetV2/expanded_conv_7/expand/BatchNorm/gamma"
        string_val: "MobilenetV2/expanded_conv_7/expand/BatchNorm/beta"
        string_val: "MobilenetV2/expanded_conv_7/expand/BatchNorm/moving_mean"
        string_val: "MobilenetV2/expanded_conv_7/expand/BatchNorm/moving_variance"
        string_val: "MobilenetV2/expanded_conv_7/depthwise/depthwise_weights"
        string_val: "MobilenetV2/expanded_conv_7/depthwise/BatchNorm/gamma"
        string_val: "MobilenetV2/expanded_conv_7/depthwise/BatchNorm/beta"
        string_val: "MobilenetV2/expanded_conv_7/depthwise/BatchNorm/moving_mean"
        string_val: "MobilenetV2/expanded_conv_7/depthwise/BatchNorm/moving_variance"
        string_val: "MobilenetV2/expanded_conv_7/project/weights"
        string_val: "MobilenetV2/expanded_conv_7/project/BatchNorm/gamma"
        string_val: "MobilenetV2/expanded_conv_7/project/BatchNorm/beta"
        string_val: "MobilenetV2/expanded_conv_7/project/BatchNorm/moving_mean"
        string_val: "MobilenetV2/expanded_conv_7/project/BatchNorm/moving_variance"
        string_val: "MobilenetV2/expanded_conv_8/expand/weights"
        string_val: "MobilenetV2/expanded_conv_8/expand/BatchNorm/gamma"
        string_val: "MobilenetV2/expanded_conv_8/expand/BatchNorm/beta"
        string_val: "MobilenetV2/expanded_conv_8/expand/BatchNorm/moving_mean"
        string_val: "MobilenetV2/expanded_conv_8/expand/BatchNorm/moving_variance"
        string_val: "MobilenetV2/expanded_conv_8/depthwise/depthwise_weights"
        string_val: "MobilenetV2/expanded_conv_8/depthwise/BatchNorm/gamma"
        string_val: "MobilenetV2/expanded_conv_8/depthwise/BatchNorm/beta"
        string_val: "MobilenetV2/expanded_conv_8/depthwise/BatchNorm/moving_mean"
        string_val: "MobilenetV2/expanded_conv_8/depthwise/BatchNorm/moving_variance"
        string_val: "MobilenetV2/expanded_conv_8/project/weights"
        string_val: "MobilenetV2/expanded_conv_8/project/BatchNorm/gamma"
        string_val: "MobilenetV2/expanded_conv_8/project/BatchNorm/beta"
        string_val: "MobilenetV2/expanded_conv_8/project/BatchNorm/moving_mean"
        string_val: "MobilenetV2/expanded_conv_8/project/BatchNorm/moving_variance"
        string_val: "MobilenetV2/expanded_conv_9/expand/weights"
        string_val: "MobilenetV2/expanded_conv_9/expand/BatchNorm/gamma"
        string_val: "MobilenetV2/expanded_conv_9/expand/BatchNorm/beta"
        string_val: "MobilenetV2/expanded_conv_9/expand/BatchNorm/moving_mean"
        string_val: "MobilenetV2/expanded_conv_9/expand/BatchNorm/moving_variance"
        string_val: "MobilenetV2/expanded_conv_9/depthwise/depthwise_weights"
        string_val: "MobilenetV2/expanded_conv_9/depthwise/BatchNorm/gamma"
        string_val: "MobilenetV2/expanded_conv_9/depthwise/BatchNorm/beta"
        string_val: "MobilenetV2/expanded_conv_9/depthwise/BatchNorm/moving_mean"
        string_val: "MobilenetV2/expanded_conv_9/depthwise/BatchNorm/moving_variance"
        string_val: "MobilenetV2/expanded_conv_9/project/weights"
        string_val: "MobilenetV2/expanded_conv_9/project/BatchNorm/gamma"
        string_val: "MobilenetV2/expanded_conv_9/project/BatchNorm/beta"
        string_val: "MobilenetV2/expanded_conv_9/project/BatchNorm/moving_mean"
        string_val: "MobilenetV2/expanded_conv_9/project/BatchNorm/moving_variance"
        string_val: "MobilenetV2/expanded_conv_10/expand/weights"
        string_val: "MobilenetV2/expanded_conv_10/expand/BatchNorm/gamma"
        string_val: "MobilenetV2/expanded_conv_10/expand/BatchNorm/beta"
        string_val: "MobilenetV2/expanded_conv_10/expand/BatchNorm/moving_mean"
        string_val: "MobilenetV2/expanded_conv_10/expand/BatchNorm/moving_variance"
        string_val: "MobilenetV2/expanded_conv_10/depthwise/depthwise_weights"
        string_val: "MobilenetV2/expanded_conv_10/depthwise/BatchNorm/gamma"
        string_val: "MobilenetV2/expanded_conv_10/depthwise/BatchNorm/beta"
        string_val: "MobilenetV2/expanded_conv_10/depthwise/BatchNorm/moving_mean"
        string_val: "MobilenetV2/expanded_conv_10/depthwise/BatchNorm/moving_variance"
        string_val: "MobilenetV2/expanded_conv_10/project/weights"
        string_val: "MobilenetV2/expanded_conv_10/project/BatchNorm/gamma"
        string_val: "MobilenetV2/expanded_conv_10/project/BatchNorm/beta"
        string_val: "MobilenetV2/expanded_conv_10/project/BatchNorm/moving_mean"
        string_val: "MobilenetV2/expanded_conv_10/project/BatchNorm/moving_variance"
        string_val: "MobilenetV2/expanded_conv_11/expand/weights"
        string_val: "MobilenetV2/expanded_conv_11/expand/BatchNorm/gamma"
        string_val: "MobilenetV2/expanded_conv_11/expand/BatchNorm/beta"
        string_val: "MobilenetV2/expanded_conv_11/expand/BatchNorm/moving_mean"
        string_val: "MobilenetV2/expanded_conv_11/expand/BatchNorm/moving_variance"
        string_val: "MobilenetV2/expanded_conv_11/depthwise/depthwise_weights"
        string_val: "MobilenetV2/expanded_conv_11/depthwise/BatchNorm/gamma"
        string_val: "MobilenetV2/expanded_conv_11/depthwise/BatchNorm/beta"
        string_val: "MobilenetV2/expanded_conv_11/depthwise/BatchNorm/moving_mean"
        string_val: "MobilenetV2/expanded_conv_11/depthwise/BatchNorm/moving_variance"
        string_val: "MobilenetV2/expanded_conv_11/project/weights"
        string_val: "MobilenetV2/expanded_conv_11/project/BatchNorm/gamma"
        string_val: "MobilenetV2/expanded_conv_11/project/BatchNorm/beta"
        string_val: "MobilenetV2/expanded_conv_11/project/BatchNorm/moving_mean"
        string_val: "MobilenetV2/expanded_conv_11/project/BatchNorm/moving_variance"
        string_val: "MobilenetV2/expanded_conv_12/expand/weights"
        string_val: "MobilenetV2/expanded_conv_12/expand/BatchNorm/gamma"
        string_val: "MobilenetV2/expanded_conv_12/expand/BatchNorm/beta"
        string_val: "MobilenetV2/expanded_conv_12/expand/BatchNorm/moving_mean"
        string_val: "MobilenetV2/expanded_conv_12/expand/BatchNorm/moving_variance"
        string_val: "MobilenetV2/expanded_conv_12/depthwise/depthwise_weights"
        string_val: "MobilenetV2/expanded_conv_12/depthwise/BatchNorm/gamma"
        string_val: "MobilenetV2/expanded_conv_12/depthwise/BatchNorm/beta"
        string_val: "MobilenetV2/expanded_conv_12/depthwise/BatchNorm/moving_mean"
        string_val: "MobilenetV2/expanded_conv_12/depthwise/BatchNorm/moving_variance"
        string_val: "MobilenetV2/expanded_conv_12/project/weights"
        string_val: "MobilenetV2/expanded_conv_12/project/BatchNorm/gamma"
        string_val: "MobilenetV2/expanded_conv_12/project/BatchNorm/beta"
        string_val: "MobilenetV2/expanded_conv_12/project/BatchNorm/moving_mean"
        string_val: "MobilenetV2/expanded_conv_12/project/BatchNorm/moving_variance"
        string_val: "MobilenetV2/expanded_conv_13/expand/weights"
        string_val: "MobilenetV2/expanded_conv_13/expand/BatchNorm/gamma"
        string_val: "MobilenetV2/expanded_conv_13/expand/BatchNorm/beta"
        string_val: "MobilenetV2/expanded_conv_13/expand/BatchNorm/moving_mean"
        string_val: "MobilenetV2/expanded_conv_13/expand/BatchNorm/moving_variance"
        string_val: "MobilenetV2/expanded_conv_13/depthwise/depthwise_weights"
        string_val: "MobilenetV2/expanded_conv_13/depthwise/BatchNorm/gamma"
        string_val: "MobilenetV2/expanded_conv_13/depthwise/BatchNorm/beta"
        string_val: "MobilenetV2/expanded_conv_13/depthwise/BatchNorm/moving_mean"
        string_val: "MobilenetV2/expanded_conv_13/depthwise/BatchNorm/moving_variance"
        string_val: "MobilenetV2/expanded_conv_13/project/weights"
        string_val: "MobilenetV2/expanded_conv_13/project/BatchNorm/gamma"
        string_val: "MobilenetV2/expanded_conv_13/project/BatchNorm/beta"
        string_val: "MobilenetV2/expanded_conv_13/project/BatchNorm/moving_mean"
        string_val: "MobilenetV2/expanded_conv_13/project/BatchNorm/moving_variance"
        string_val: "MobilenetV2/expanded_conv_14/expand/weights"
        string_val: "MobilenetV2/expanded_conv_14/expand/BatchNorm/gamma"
        string_val: "MobilenetV2/expanded_conv_14/expand/BatchNorm/beta"
        string_val: "MobilenetV2/expanded_conv_14/expand/BatchNorm/moving_mean"
        string_val: "MobilenetV2/expanded_conv_14/expand/BatchNorm/moving_variance"
        string_val: "MobilenetV2/expanded_conv_14/depthwise/depthwise_weights"
        string_val: "MobilenetV2/expanded_conv_14/depthwise/BatchNorm/gamma"
        string_val: "MobilenetV2/expanded_conv_14/depthwise/BatchNorm/beta"
        string_val: "MobilenetV2/expanded_conv_14/depthwise/BatchNorm/moving_mean"
        string_val: "MobilenetV2/expanded_conv_14/depthwise/BatchNorm/moving_variance"
        string_val: "MobilenetV2/expanded_conv_14/project/weights"
        string_val: "MobilenetV2/expanded_conv_14/project/BatchNorm/gamma"
        string_val: "MobilenetV2/expanded_conv_14/project/BatchNorm/beta"
        string_val: "MobilenetV2/expanded_conv_14/project/BatchNorm/moving_mean"
        string_val: "MobilenetV2/expanded_conv_14/project/BatchNorm/moving_variance"
        string_val: "MobilenetV2/expanded_conv_15/expand/weights"
        string_val: "MobilenetV2/expanded_conv_15/expand/BatchNorm/gamma"
        string_val: "MobilenetV2/expanded_conv_15/expand/BatchNorm/beta"
        string_val: "MobilenetV2/expanded_conv_15/expand/BatchNorm/moving_mean"
        string_val: "MobilenetV2/expanded_conv_15/expand/BatchNorm/moving_variance"
        string_val: "MobilenetV2/expanded_conv_15/depthwise/depthwise_weights"
        string_val: "MobilenetV2/expanded_conv_15/depthwise/BatchNorm/gamma"
        string_val: "MobilenetV2/expanded_conv_15/depthwise/BatchNorm/beta"
        string_val: "MobilenetV2/expanded_conv_15/depthwise/BatchNorm/moving_mean"
        string_val: "MobilenetV2/expanded_conv_15/depthwise/BatchNorm/moving_variance"
        string_val: "MobilenetV2/expanded_conv_15/project/weights"
        string_val: "MobilenetV2/expanded_conv_15/project/BatchNorm/gamma"
        string_val: "MobilenetV2/expanded_conv_15/project/BatchNorm/beta"
        string_val: "MobilenetV2/expanded_conv_15/project/BatchNorm/moving_mean"
        string_val: "MobilenetV2/expanded_conv_15/project/BatchNorm/moving_variance"
        string_val: "MobilenetV2/expanded_conv_16/expand/weights"
        string_val: "MobilenetV2/expanded_conv_16/expand/BatchNorm/gamma"
        string_val: "MobilenetV2/expanded_conv_16/expand/BatchNorm/beta"
        string_val: "MobilenetV2/expanded_conv_16/expand/BatchNorm/moving_mean"
        string_val: "MobilenetV2/expanded_conv_16/expand/BatchNorm/moving_variance"
        string_val: "MobilenetV2/expanded_conv_16/depthwise/depthwise_weights"
        string_val: "MobilenetV2/expanded_conv_16/depthwise/BatchNorm/gamma"
        string_val: "MobilenetV2/expanded_conv_16/depthwise/BatchNorm/beta"
        string_val: "MobilenetV2/expanded_conv_16/depthwise/BatchNorm/moving_mean"
        string_val: "MobilenetV2/expanded_conv_16/depthwise/BatchNorm/moving_variance"
        string_val: "MobilenetV2/expanded_conv_16/project/weights"
        string_val: "MobilenetV2/expanded_conv_16/project/BatchNorm/gamma"
        string_val: "MobilenetV2/expanded_conv_16/project/BatchNorm/beta"
        string_val: "MobilenetV2/expanded_conv_16/project/BatchNorm/moving_mean"
        string_val: "MobilenetV2/expanded_conv_16/project/BatchNorm/moving_variance"
        string_val: "MobilenetV2/Conv_1/weights"
        string_val: "MobilenetV2/Conv_1/BatchNorm/gamma"
        string_val: "MobilenetV2/Conv_1/BatchNorm/beta"
        string_val: "MobilenetV2/Conv_1/BatchNorm/moving_mean"
        string_val: "MobilenetV2/Conv_1/BatchNorm/moving_variance"
        string_val: "MobilenetV2/Logits/Conv2d_1c_1x1/weights"
        string_val: "MobilenetV2/Logits/Conv2d_1c_1x1/biases"
        string_val: "MobilenetV2/Logits/Conv2d_1c_1x1/weights/RMSProp"
        string_val: "MobilenetV2/Logits/Conv2d_1c_1x1/weights/RMSProp_1"
        string_val: "MobilenetV2/Logits/Conv2d_1c_1x1/biases/RMSProp"
        string_val: "MobilenetV2/Logits/Conv2d_1c_1x1/biases/RMSProp_1"
      }
    }
  }
}
node {
  name: "init_ops/report_uninitialized_variables/boolean_mask/Shape"
  op: "Const"
  device: "/device:CPU:0"
  attr {
    key: "_output_shapes"
    value {
      list {
        shape {
          dim {
            size: 1
          }
        }
      }
    }
  }
  attr {
    key: "dtype"
    value {
      type: DT_INT32
    }
  }
  attr {
    key: "value"
    value {
      tensor {
        dtype: DT_INT32
        tensor_shape {
          dim {
            size: 1
          }
        }
        int_val: 267
      }
    }
  }
}
node {
  name: "init_ops/report_uninitialized_variables/boolean_mask/strided_slice/stack"
  op: "Const"
  device: "/device:CPU:0"
  attr {
    key: "_output_shapes"
    value {
      list {
        shape {
          dim {
            size: 1
          }
        }
      }
    }
  }
  attr {
    key: "dtype"
    value {
      type: DT_INT32
    }
  }
  attr {
    key: "value"
    value {
      tensor {
        dtype: DT_INT32
        tensor_shape {
          dim {
            size: 1
          }
        }
        int_val: 0
      }
    }
  }
}
node {
  name: "init_ops/report_uninitialized_variables/boolean_mask/strided_slice/stack_1"
  op: "Const"
  device: "/device:CPU:0"
  attr {
    key: "_output_shapes"
    value {
      list {
        shape {
          dim {
            size: 1
          }
        }
      }
    }
  }
  attr {
    key: "dtype"
    value {
      type: DT_INT32
    }
  }
  attr {
    key: "value"
    value {
      tensor {
        dtype: DT_INT32
        tensor_shape {
          dim {
            size: 1
          }
        }
        int_val: 1
      }
    }
  }
}
node {
  name: "init_ops/report_uninitialized_variables/boolean_mask/strided_slice/stack_2"
  op: "Const"
  device: "/device:CPU:0"
  attr {
    key: "_output_shapes"
    value {
      list {
        shape {
          dim {
            size: 1
          }
        }
      }
    }
  }
  attr {
    key: "dtype"
    value {
      type: DT_INT32
    }
  }
  attr {
    key: "value"
    value {
      tensor {
        dtype: DT_INT32
        tensor_shape {
          dim {
            size: 1
          }
        }
        int_val: 1
      }
    }
  }
}
node {
  name: "init_ops/report_uninitialized_variables/boolean_mask/strided_slice"
  op: "StridedSlice"
  input: "init_ops/report_uninitialized_variables/boolean_mask/Shape"
  input: "init_ops/report_uninitialized_variables/boolean_mask/strided_slice/stack"
  input: "init_ops/report_uninitialized_variables/boolean_mask/strided_slice/stack_1"
  input: "init_ops/report_uninitialized_variables/boolean_mask/strided_slice/stack_2"
  device: "/device:CPU:0"
  attr {
    key: "Index"
    value {
      type: DT_INT32
    }
  }
  attr {
    key: "T"
    value {
      type: DT_INT32
    }
  }
  attr {
    key: "_output_shapes"
    value {
      list {
        shape {
          dim {
            size: 1
          }
        }
      }
    }
  }
  attr {
    key: "begin_mask"
    value {
      i: 0
    }
  }
  attr {
    key: "ellipsis_mask"
    value {
      i: 0
    }
  }
  attr {
    key: "end_mask"
    value {
      i: 0
    }
  }
  attr {
    key: "new_axis_mask"
    value {
      i: 0
    }
  }
  attr {
    key: "shrink_axis_mask"
    value {
      i: 0
    }
  }
}
node {
  name: "init_ops/report_uninitialized_variables/boolean_mask/Prod/reduction_indices"
  op: "Const"
  device: "/device:CPU:0"
  attr {
    key: "_output_shapes"
    value {
      list {
        shape {
          dim {
            size: 1
          }
        }
      }
    }
  }
  attr {
    key: "dtype"
    value {
      type: DT_INT32
    }
  }
  attr {
    key: "value"
    value {
      tensor {
        dtype: DT_INT32
        tensor_shape {
          dim {
            size: 1
          }
        }
        int_val: 0
      }
    }
  }
}
node {
  name: "init_ops/report_uninitialized_variables/boolean_mask/Prod"
  op: "Prod"
  input: "init_ops/report_uninitialized_variables/boolean_mask/strided_slice"
  input: "init_ops/report_uninitialized_variables/boolean_mask/Prod/reduction_indices"
  device: "/device:CPU:0"
  attr {
    key: "T"
    value {
      type: DT_INT32
    }
  }
  attr {
    key: "Tidx"
    value {
      type: DT_INT32
    }
  }
  attr {
    key: "_output_shapes"
    value {
      list {
        shape {
        }
      }
    }
  }
  attr {
    key: "keep_dims"
    value {
      b: false
    }
  }
}
node {
  name: "init_ops/report_uninitialized_variables/boolean_mask/Shape_1"
  op: "Const"
  device: "/device:CPU:0"
  attr {
    key: "_output_shapes"
    value {
      list {
        shape {
          dim {
            size: 1
          }
        }
      }
    }
  }
  attr {
    key: "dtype"
    value {
      type: DT_INT32
    }
  }
  attr {
    key: "value"
    value {
      tensor {
        dtype: DT_INT32
        tensor_shape {
          dim {
            size: 1
          }
        }
        int_val: 267
      }
    }
  }
}
node {
  name: "init_ops/report_uninitialized_variables/boolean_mask/strided_slice_1/stack"
  op: "Const"
  device: "/device:CPU:0"
  attr {
    key: "_output_shapes"
    value {
      list {
        shape {
          dim {
            size: 1
          }
        }
      }
    }
  }
  attr {
    key: "dtype"
    value {
      type: DT_INT32
    }
  }
  attr {
    key: "value"
    value {
      tensor {
        dtype: DT_INT32
        tensor_shape {
          dim {
            size: 1
          }
        }
        int_val: 0
      }
    }
  }
}
node {
  name: "init_ops/report_uninitialized_variables/boolean_mask/strided_slice_1/stack_1"
  op: "Const"
  device: "/device:CPU:0"
  attr {
    key: "_output_shapes"
    value {
      list {
        shape {
          dim {
            size: 1
          }
        }
      }
    }
  }
  attr {
    key: "dtype"
    value {
      type: DT_INT32
    }
  }
  attr {
    key: "value"
    value {
      tensor {
        dtype: DT_INT32
        tensor_shape {
          dim {
            size: 1
          }
        }
        int_val: 0
      }
    }
  }
}
node {
  name: "init_ops/report_uninitialized_variables/boolean_mask/strided_slice_1/stack_2"
  op: "Const"
  device: "/device:CPU:0"
  attr {
    key: "_output_shapes"
    value {
      list {
        shape {
          dim {
            size: 1
          }
        }
      }
    }
  }
  attr {
    key: "dtype"
    value {
      type: DT_INT32
    }
  }
  attr {
    key: "value"
    value {
      tensor {
        dtype: DT_INT32
        tensor_shape {
          dim {
            size: 1
          }
        }
        int_val: 1
      }
    }
  }
}
node {
  name: "init_ops/report_uninitialized_variables/boolean_mask/strided_slice_1"
  op: "StridedSlice"
  input: "init_ops/report_uninitialized_variables/boolean_mask/Shape_1"
  input: "init_ops/report_uninitialized_variables/boolean_mask/strided_slice_1/stack"
  input: "init_ops/report_uninitialized_variables/boolean_mask/strided_slice_1/stack_1"
  input: "init_ops/report_uninitialized_variables/boolean_mask/strided_slice_1/stack_2"
  device: "/device:CPU:0"
  attr {
    key: "Index"
    value {
      type: DT_INT32
    }
  }
  attr {
    key: "T"
    value {
      type: DT_INT32
    }
  }
  attr {
    key: "_output_shapes"
    value {
      list {
        shape {
          dim {
          }
        }
      }
    }
  }
  attr {
    key: "begin_mask"
    value {
      i: 1
    }
  }
  attr {
    key: "ellipsis_mask"
    value {
      i: 0
    }
  }
  attr {
    key: "end_mask"
    value {
      i: 0
    }
  }
  attr {
    key: "new_axis_mask"
    value {
      i: 0
    }
  }
  attr {
    key: "shrink_axis_mask"
    value {
      i: 0
    }
  }
}
node {
  name: "init_ops/report_uninitialized_variables/boolean_mask/Shape_2"
  op: "Const"
  device: "/device:CPU:0"
  attr {
    key: "_output_shapes"
    value {
      list {
        shape {
          dim {
            size: 1
          }
        }
      }
    }
  }
  attr {
    key: "dtype"
    value {
      type: DT_INT32
    }
  }
  attr {
    key: "value"
    value {
      tensor {
        dtype: DT_INT32
        tensor_shape {
          dim {
            size: 1
          }
        }
        int_val: 267
      }
    }
  }
}
node {
  name: "init_ops/report_uninitialized_variables/boolean_mask/strided_slice_2/stack"
  op: "Const"
  device: "/device:CPU:0"
  attr {
    key: "_output_shapes"
    value {
      list {
        shape {
          dim {
            size: 1
          }
        }
      }
    }
  }
  attr {
    key: "dtype"
    value {
      type: DT_INT32
    }
  }
  attr {
    key: "value"
    value {
      tensor {
        dtype: DT_INT32
        tensor_shape {
          dim {
            size: 1
          }
        }
        int_val: 1
      }
    }
  }
}
node {
  name: "init_ops/report_uninitialized_variables/boolean_mask/strided_slice_2/stack_1"
  op: "Const"
  device: "/device:CPU:0"
  attr {
    key: "_output_shapes"
    value {
      list {
        shape {
          dim {
            size: 1
          }
        }
      }
    }
  }
  attr {
    key: "dtype"
    value {
      type: DT_INT32
    }
  }
  attr {
    key: "value"
    value {
      tensor {
        dtype: DT_INT32
        tensor_shape {
          dim {
            size: 1
          }
        }
        int_val: 0
      }
    }
  }
}
node {
  name: "init_ops/report_uninitialized_variables/boolean_mask/strided_slice_2/stack_2"
  op: "Const"
  device: "/device:CPU:0"
  attr {
    key: "_output_shapes"
    value {
      list {
        shape {
          dim {
            size: 1
          }
        }
      }
    }
  }
  attr {
    key: "dtype"
    value {
      type: DT_INT32
    }
  }
  attr {
    key: "value"
    value {
      tensor {
        dtype: DT_INT32
        tensor_shape {
          dim {
            size: 1
          }
        }
        int_val: 1
      }
    }
  }
}
node {
  name: "init_ops/report_uninitialized_variables/boolean_mask/strided_slice_2"
  op: "StridedSlice"
  input: "init_ops/report_uninitialized_variables/boolean_mask/Shape_2"
  input: "init_ops/report_uninitialized_variables/boolean_mask/strided_slice_2/stack"
  input: "init_ops/report_uninitialized_variables/boolean_mask/strided_slice_2/stack_1"
  input: "init_ops/report_uninitialized_variables/boolean_mask/strided_slice_2/stack_2"
  device: "/device:CPU:0"
  attr {
    key: "Index"
    value {
      type: DT_INT32
    }
  }
  attr {
    key: "T"
    value {
      type: DT_INT32
    }
  }
  attr {
    key: "_output_shapes"
    value {
      list {
        shape {
          dim {
          }
        }
      }
    }
  }
  attr {
    key: "begin_mask"
    value {
      i: 0
    }
  }
  attr {
    key: "ellipsis_mask"
    value {
      i: 0
    }
  }
  attr {
    key: "end_mask"
    value {
      i: 1
    }
  }
  attr {
    key: "new_axis_mask"
    value {
      i: 0
    }
  }
  attr {
    key: "shrink_axis_mask"
    value {
      i: 0
    }
  }
}
node {
  name: "init_ops/report_uninitialized_variables/boolean_mask/concat/values_1"
  op: "Pack"
  input: "init_ops/report_uninitialized_variables/boolean_mask/Prod"
  device: "/device:CPU:0"
  attr {
    key: "N"
    value {
      i: 1
    }
  }
  attr {
    key: "T"
    value {
      type: DT_INT32
    }
  }
  attr {
    key: "_output_shapes"
    value {
      list {
        shape {
          dim {
            size: 1
          }
        }
      }
    }
  }
  attr {
    key: "axis"
    value {
      i: 0
    }
  }
}
node {
  name: "init_ops/report_uninitialized_variables/boolean_mask/concat/axis"
  op: "Const"
  device: "/device:CPU:0"
  attr {
    key: "_output_shapes"
    value {
      list {
        shape {
        }
      }
    }
  }
  attr {
    key: "dtype"
    value {
      type: DT_INT32
    }
  }
  attr {
    key: "value"
    value {
      tensor {
        dtype: DT_INT32
        tensor_shape {
        }
        int_val: 0
      }
    }
  }
}
node {
  name: "init_ops/report_uninitialized_variables/boolean_mask/concat"
  op: "ConcatV2"
  input: "init_ops/report_uninitialized_variables/boolean_mask/strided_slice_1"
  input: "init_ops/report_uninitialized_variables/boolean_mask/concat/values_1"
  input: "init_ops/report_uninitialized_variables/boolean_mask/strided_slice_2"
  input: "init_ops/report_uninitialized_variables/boolean_mask/concat/axis"
  device: "/device:CPU:0"
  attr {
    key: "N"
    value {
      i: 3
    }
  }
  attr {
    key: "T"
    value {
      type: DT_INT32
    }
  }
  attr {
    key: "Tidx"
    value {
      type: DT_INT32
    }
  }
  attr {
    key: "_output_shapes"
    value {
      list {
        shape {
          dim {
            size: 1
          }
        }
      }
    }
  }
}
node {
  name: "init_ops/report_uninitialized_variables/boolean_mask/Reshape"
  op: "Reshape"
  input: "init_ops/report_uninitialized_variables/Const"
  input: "init_ops/report_uninitialized_variables/boolean_mask/concat"
  device: "/device:CPU:0"
  attr {
    key: "T"
    value {
      type: DT_STRING
    }
  }
  attr {
    key: "Tshape"
    value {
      type: DT_INT32
    }
  }
  attr {
    key: "_output_shapes"
    value {
      list {
        shape {
          dim {
            size: 267
          }
        }
      }
    }
  }
}
node {
  name: "init_ops/report_uninitialized_variables/boolean_mask/Reshape_1/shape"
  op: "Const"
  device: "/device:CPU:0"
  attr {
    key: "_output_shapes"
    value {
      list {
        shape {
          dim {
            size: 1
          }
        }
      }
    }
  }
  attr {
    key: "dtype"
    value {
      type: DT_INT32
    }
  }
  attr {
    key: "value"
    value {
      tensor {
        dtype: DT_INT32
        tensor_shape {
          dim {
            size: 1
          }
        }
        int_val: -1
      }
    }
  }
}
node {
  name: "init_ops/report_uninitialized_variables/boolean_mask/Reshape_1"
  op: "Reshape"
  input: "init_ops/report_uninitialized_variables/LogicalNot"
  input: "init_ops/report_uninitialized_variables/boolean_mask/Reshape_1/shape"
  device: "/device:CPU:0"
  attr {
    key: "T"
    value {
      type: DT_BOOL
    }
  }
  attr {
    key: "Tshape"
    value {
      type: DT_INT32
    }
  }
  attr {
    key: "_output_shapes"
    value {
      list {
        shape {
          dim {
            size: 267
          }
        }
      }
    }
  }
}
node {
  name: "init_ops/report_uninitialized_variables/boolean_mask/Where"
  op: "Where"
  input: "init_ops/report_uninitialized_variables/boolean_mask/Reshape_1"
  device: "/device:CPU:0"
  attr {
    key: "T"
    value {
      type: DT_BOOL
    }
  }
  attr {
    key: "_output_shapes"
    value {
      list {
        shape {
          dim {
            size: -1
          }
          dim {
            size: 1
          }
        }
      }
    }
  }
}
node {
  name: "init_ops/report_uninitialized_variables/boolean_mask/Squeeze"
  op: "Squeeze"
  input: "init_ops/report_uninitialized_variables/boolean_mask/Where"
  device: "/device:CPU:0"
  attr {
    key: "T"
    value {
      type: DT_INT64
    }
  }
  attr {
    key: "_output_shapes"
    value {
      list {
        shape {
          dim {
            size: -1
          }
        }
      }
    }
  }
  attr {
    key: "squeeze_dims"
    value {
      list {
        i: 1
      }
    }
  }
}
node {
  name: "init_ops/report_uninitialized_variables/boolean_mask/GatherV2/axis"
  op: "Const"
  device: "/device:CPU:0"
  attr {
    key: "_output_shapes"
    value {
      list {
        shape {
        }
      }
    }
  }
  attr {
    key: "dtype"
    value {
      type: DT_INT32
    }
  }
  attr {
    key: "value"
    value {
      tensor {
        dtype: DT_INT32
        tensor_shape {
        }
        int_val: 0
      }
    }
  }
}
node {
  name: "init_ops/report_uninitialized_variables/boolean_mask/GatherV2"
  op: "GatherV2"
  input: "init_ops/report_uninitialized_variables/boolean_mask/Reshape"
  input: "init_ops/report_uninitialized_variables/boolean_mask/Squeeze"
  input: "init_ops/report_uninitialized_variables/boolean_mask/GatherV2/axis"
  device: "/device:CPU:0"
  attr {
    key: "Taxis"
    value {
      type: DT_INT32
    }
  }
  attr {
    key: "Tindices"
    value {
      type: DT_INT64
    }
  }
  attr {
    key: "Tparams"
    value {
      type: DT_STRING
    }
  }
  attr {
    key: "_output_shapes"
    value {
      list {
        shape {
          dim {
            size: -1
          }
        }
      }
    }
  }
}
node {
  name: "init_ops/init_1"
  op: "NoOp"
}
node {
  name: "init_ops/init_all_tables"
  op: "NoOp"
}
node {
  name: "init_ops/group_deps"
  op: "NoOp"
  input: "^init_ops/init_1"
  input: "^init_ops/init_all_tables"
}
node {
  name: "train_step/Const"
  op: "Const"
  attr {
    key: "_output_shapes"
    value {
      list {
        shape {
        }
      }
    }
  }
  attr {
    key: "dtype"
    value {
      type: DT_BOOL
    }
  }
  attr {
    key: "value"
    value {
      tensor {
        dtype: DT_BOOL
        tensor_shape {
        }
        bool_val: false
      }
    }
  }
}
node {
  name: "train_step/FloorMod/y"
  op: "Const"
  attr {
    key: "_output_shapes"
    value {
      list {
        shape {
        }
      }
    }
  }
  attr {
    key: "dtype"
    value {
      type: DT_INT64
    }
  }
  attr {
    key: "value"
    value {
      tensor {
        dtype: DT_INT64
        tensor_shape {
        }
        int64_val: 10
      }
    }
  }
}
node {
  name: "train_step/FloorMod"
  op: "FloorMod"
  input: "global_step/read"
  input: "train_step/FloorMod/y"
  attr {
    key: "T"
    value {
      type: DT_INT64
    }
  }
  attr {
    key: "_output_shapes"
    value {
      list {
        shape {
        }
      }
    }
  }
}
node {
  name: "train_step/Equal/y"
  op: "Const"
  attr {
    key: "_output_shapes"
    value {
      list {
        shape {
        }
      }
    }
  }
  attr {
    key: "dtype"
    value {
      type: DT_INT64
    }
  }
  attr {
    key: "value"
    value {
      tensor {
        dtype: DT_INT64
        tensor_shape {
        }
        int64_val: 0
      }
    }
  }
}
node {
  name: "train_step/Equal"
  op: "Equal"
  input: "train_step/FloorMod"
  input: "train_step/Equal/y"
  attr {
    key: "T"
    value {
      type: DT_INT64
    }
  }
  attr {
    key: "_output_shapes"
    value {
      list {
        shape {
        }
      }
    }
  }
}
versions {
  producer: 27
}
